class GraphModule(torch.nn.Module):
    def forward(self, p_model_model_encoder_embed_positions_weight: "f32[512, 512]", p_model_model_decoder_embed_positions_weight: "f32[512, 512]", p_model_model_encoder_embed_tokens_weight: "f32[59514, 512]", p_model_model_encoder_layers_0_self_attn_q_proj_weight: "f32[512, 512]", p_model_model_encoder_layers_0_self_attn_q_proj_bias: "f32[512]", p_model_model_encoder_layers_0_self_attn_k_proj_weight: "f32[512, 512]", p_model_model_encoder_layers_0_self_attn_k_proj_bias: "f32[512]", p_model_model_encoder_layers_0_self_attn_v_proj_weight: "f32[512, 512]", p_model_model_encoder_layers_0_self_attn_v_proj_bias: "f32[512]", p_model_model_encoder_layers_0_self_attn_out_proj_weight: "f32[512, 512]", p_model_model_encoder_layers_0_self_attn_out_proj_bias: "f32[512]", p_model_model_encoder_layers_0_self_attn_layer_norm_weight: "f32[512]", p_model_model_encoder_layers_0_self_attn_layer_norm_bias: "f32[512]", p_model_model_encoder_layers_0_fc1_weight: "f32[2048, 512]", p_model_model_encoder_layers_0_fc1_bias: "f32[2048]", p_model_model_encoder_layers_0_fc2_weight: "f32[512, 2048]", p_model_model_encoder_layers_0_fc2_bias: "f32[512]", p_model_model_encoder_layers_0_final_layer_norm_weight: "f32[512]", p_model_model_encoder_layers_0_final_layer_norm_bias: "f32[512]", p_model_model_encoder_layers_1_self_attn_q_proj_weight: "f32[512, 512]", p_model_model_encoder_layers_1_self_attn_q_proj_bias: "f32[512]", p_model_model_encoder_layers_1_self_attn_k_proj_weight: "f32[512, 512]", p_model_model_encoder_layers_1_self_attn_k_proj_bias: "f32[512]", p_model_model_encoder_layers_1_self_attn_v_proj_weight: "f32[512, 512]", p_model_model_encoder_layers_1_self_attn_v_proj_bias: "f32[512]", p_model_model_encoder_layers_1_self_attn_out_proj_weight: "f32[512, 512]", p_model_model_encoder_layers_1_self_attn_out_proj_bias: "f32[512]", p_model_model_encoder_layers_1_self_attn_layer_norm_weight: "f32[512]", p_model_model_encoder_layers_1_self_attn_layer_norm_bias: "f32[512]", p_model_model_encoder_layers_1_fc1_weight: "f32[2048, 512]", p_model_model_encoder_layers_1_fc1_bias: "f32[2048]", p_model_model_encoder_layers_1_fc2_weight: "f32[512, 2048]", p_model_model_encoder_layers_1_fc2_bias: "f32[512]", p_model_model_encoder_layers_1_final_layer_norm_weight: "f32[512]", p_model_model_encoder_layers_1_final_layer_norm_bias: "f32[512]", p_model_model_encoder_layers_2_self_attn_q_proj_weight: "f32[512, 512]", p_model_model_encoder_layers_2_self_attn_q_proj_bias: "f32[512]", p_model_model_encoder_layers_2_self_attn_k_proj_weight: "f32[512, 512]", p_model_model_encoder_layers_2_self_attn_k_proj_bias: "f32[512]", p_model_model_encoder_layers_2_self_attn_v_proj_weight: "f32[512, 512]", p_model_model_encoder_layers_2_self_attn_v_proj_bias: "f32[512]", p_model_model_encoder_layers_2_self_attn_out_proj_weight: "f32[512, 512]", p_model_model_encoder_layers_2_self_attn_out_proj_bias: "f32[512]", p_model_model_encoder_layers_2_self_attn_layer_norm_weight: "f32[512]", p_model_model_encoder_layers_2_self_attn_layer_norm_bias: "f32[512]", p_model_model_encoder_layers_2_fc1_weight: "f32[2048, 512]", p_model_model_encoder_layers_2_fc1_bias: "f32[2048]", p_model_model_encoder_layers_2_fc2_weight: "f32[512, 2048]", p_model_model_encoder_layers_2_fc2_bias: "f32[512]", p_model_model_encoder_layers_2_final_layer_norm_weight: "f32[512]", p_model_model_encoder_layers_2_final_layer_norm_bias: "f32[512]", p_model_model_encoder_layers_3_self_attn_q_proj_weight: "f32[512, 512]", p_model_model_encoder_layers_3_self_attn_q_proj_bias: "f32[512]", p_model_model_encoder_layers_3_self_attn_k_proj_weight: "f32[512, 512]", p_model_model_encoder_layers_3_self_attn_k_proj_bias: "f32[512]", p_model_model_encoder_layers_3_self_attn_v_proj_weight: "f32[512, 512]", p_model_model_encoder_layers_3_self_attn_v_proj_bias: "f32[512]", p_model_model_encoder_layers_3_self_attn_out_proj_weight: "f32[512, 512]", p_model_model_encoder_layers_3_self_attn_out_proj_bias: "f32[512]", p_model_model_encoder_layers_3_self_attn_layer_norm_weight: "f32[512]", p_model_model_encoder_layers_3_self_attn_layer_norm_bias: "f32[512]", p_model_model_encoder_layers_3_fc1_weight: "f32[2048, 512]", p_model_model_encoder_layers_3_fc1_bias: "f32[2048]", p_model_model_encoder_layers_3_fc2_weight: "f32[512, 2048]", p_model_model_encoder_layers_3_fc2_bias: "f32[512]", p_model_model_encoder_layers_3_final_layer_norm_weight: "f32[512]", p_model_model_encoder_layers_3_final_layer_norm_bias: "f32[512]", p_model_model_encoder_layers_4_self_attn_q_proj_weight: "f32[512, 512]", p_model_model_encoder_layers_4_self_attn_q_proj_bias: "f32[512]", p_model_model_encoder_layers_4_self_attn_k_proj_weight: "f32[512, 512]", p_model_model_encoder_layers_4_self_attn_k_proj_bias: "f32[512]", p_model_model_encoder_layers_4_self_attn_v_proj_weight: "f32[512, 512]", p_model_model_encoder_layers_4_self_attn_v_proj_bias: "f32[512]", p_model_model_encoder_layers_4_self_attn_out_proj_weight: "f32[512, 512]", p_model_model_encoder_layers_4_self_attn_out_proj_bias: "f32[512]", p_model_model_encoder_layers_4_self_attn_layer_norm_weight: "f32[512]", p_model_model_encoder_layers_4_self_attn_layer_norm_bias: "f32[512]", p_model_model_encoder_layers_4_fc1_weight: "f32[2048, 512]", p_model_model_encoder_layers_4_fc1_bias: "f32[2048]", p_model_model_encoder_layers_4_fc2_weight: "f32[512, 2048]", p_model_model_encoder_layers_4_fc2_bias: "f32[512]", p_model_model_encoder_layers_4_final_layer_norm_weight: "f32[512]", p_model_model_encoder_layers_4_final_layer_norm_bias: "f32[512]", p_model_model_encoder_layers_5_self_attn_q_proj_weight: "f32[512, 512]", p_model_model_encoder_layers_5_self_attn_q_proj_bias: "f32[512]", p_model_model_encoder_layers_5_self_attn_k_proj_weight: "f32[512, 512]", p_model_model_encoder_layers_5_self_attn_k_proj_bias: "f32[512]", p_model_model_encoder_layers_5_self_attn_v_proj_weight: "f32[512, 512]", p_model_model_encoder_layers_5_self_attn_v_proj_bias: "f32[512]", p_model_model_encoder_layers_5_self_attn_out_proj_weight: "f32[512, 512]", p_model_model_encoder_layers_5_self_attn_out_proj_bias: "f32[512]", p_model_model_encoder_layers_5_self_attn_layer_norm_weight: "f32[512]", p_model_model_encoder_layers_5_self_attn_layer_norm_bias: "f32[512]", p_model_model_encoder_layers_5_fc1_weight: "f32[2048, 512]", p_model_model_encoder_layers_5_fc1_bias: "f32[2048]", p_model_model_encoder_layers_5_fc2_weight: "f32[512, 2048]", p_model_model_encoder_layers_5_fc2_bias: "f32[512]", p_model_model_encoder_layers_5_final_layer_norm_weight: "f32[512]", p_model_model_encoder_layers_5_final_layer_norm_bias: "f32[512]", p_model_model_decoder_layers_0_self_attn_q_proj_weight: "f32[512, 512]", p_model_model_decoder_layers_0_self_attn_q_proj_bias: "f32[512]", p_model_model_decoder_layers_0_self_attn_k_proj_weight: "f32[512, 512]", p_model_model_decoder_layers_0_self_attn_k_proj_bias: "f32[512]", p_model_model_decoder_layers_0_self_attn_v_proj_weight: "f32[512, 512]", p_model_model_decoder_layers_0_self_attn_v_proj_bias: "f32[512]", p_model_model_decoder_layers_0_self_attn_out_proj_weight: "f32[512, 512]", p_model_model_decoder_layers_0_self_attn_out_proj_bias: "f32[512]", p_model_model_decoder_layers_0_self_attn_layer_norm_weight: "f32[512]", p_model_model_decoder_layers_0_self_attn_layer_norm_bias: "f32[512]", p_model_model_decoder_layers_0_encoder_attn_q_proj_weight: "f32[512, 512]", p_model_model_decoder_layers_0_encoder_attn_q_proj_bias: "f32[512]", p_model_model_decoder_layers_0_encoder_attn_k_proj_weight: "f32[512, 512]", p_model_model_decoder_layers_0_encoder_attn_k_proj_bias: "f32[512]", p_model_model_decoder_layers_0_encoder_attn_v_proj_weight: "f32[512, 512]", p_model_model_decoder_layers_0_encoder_attn_v_proj_bias: "f32[512]", p_model_model_decoder_layers_0_encoder_attn_out_proj_weight: "f32[512, 512]", p_model_model_decoder_layers_0_encoder_attn_out_proj_bias: "f32[512]", p_model_model_decoder_layers_0_encoder_attn_layer_norm_weight: "f32[512]", p_model_model_decoder_layers_0_encoder_attn_layer_norm_bias: "f32[512]", p_model_model_decoder_layers_0_fc1_weight: "f32[2048, 512]", p_model_model_decoder_layers_0_fc1_bias: "f32[2048]", p_model_model_decoder_layers_0_fc2_weight: "f32[512, 2048]", p_model_model_decoder_layers_0_fc2_bias: "f32[512]", p_model_model_decoder_layers_0_final_layer_norm_weight: "f32[512]", p_model_model_decoder_layers_0_final_layer_norm_bias: "f32[512]", p_model_model_decoder_layers_1_self_attn_q_proj_weight: "f32[512, 512]", p_model_model_decoder_layers_1_self_attn_q_proj_bias: "f32[512]", p_model_model_decoder_layers_1_self_attn_k_proj_weight: "f32[512, 512]", p_model_model_decoder_layers_1_self_attn_k_proj_bias: "f32[512]", p_model_model_decoder_layers_1_self_attn_v_proj_weight: "f32[512, 512]", p_model_model_decoder_layers_1_self_attn_v_proj_bias: "f32[512]", p_model_model_decoder_layers_1_self_attn_out_proj_weight: "f32[512, 512]", p_model_model_decoder_layers_1_self_attn_out_proj_bias: "f32[512]", p_model_model_decoder_layers_1_self_attn_layer_norm_weight: "f32[512]", p_model_model_decoder_layers_1_self_attn_layer_norm_bias: "f32[512]", p_model_model_decoder_layers_1_encoder_attn_q_proj_weight: "f32[512, 512]", p_model_model_decoder_layers_1_encoder_attn_q_proj_bias: "f32[512]", p_model_model_decoder_layers_1_encoder_attn_k_proj_weight: "f32[512, 512]", p_model_model_decoder_layers_1_encoder_attn_k_proj_bias: "f32[512]", p_model_model_decoder_layers_1_encoder_attn_v_proj_weight: "f32[512, 512]", p_model_model_decoder_layers_1_encoder_attn_v_proj_bias: "f32[512]", p_model_model_decoder_layers_1_encoder_attn_out_proj_weight: "f32[512, 512]", p_model_model_decoder_layers_1_encoder_attn_out_proj_bias: "f32[512]", p_model_model_decoder_layers_1_encoder_attn_layer_norm_weight: "f32[512]", p_model_model_decoder_layers_1_encoder_attn_layer_norm_bias: "f32[512]", p_model_model_decoder_layers_1_fc1_weight: "f32[2048, 512]", p_model_model_decoder_layers_1_fc1_bias: "f32[2048]", p_model_model_decoder_layers_1_fc2_weight: "f32[512, 2048]", p_model_model_decoder_layers_1_fc2_bias: "f32[512]", p_model_model_decoder_layers_1_final_layer_norm_weight: "f32[512]", p_model_model_decoder_layers_1_final_layer_norm_bias: "f32[512]", p_model_model_decoder_layers_2_self_attn_q_proj_weight: "f32[512, 512]", p_model_model_decoder_layers_2_self_attn_q_proj_bias: "f32[512]", p_model_model_decoder_layers_2_self_attn_k_proj_weight: "f32[512, 512]", p_model_model_decoder_layers_2_self_attn_k_proj_bias: "f32[512]", p_model_model_decoder_layers_2_self_attn_v_proj_weight: "f32[512, 512]", p_model_model_decoder_layers_2_self_attn_v_proj_bias: "f32[512]", p_model_model_decoder_layers_2_self_attn_out_proj_weight: "f32[512, 512]", p_model_model_decoder_layers_2_self_attn_out_proj_bias: "f32[512]", p_model_model_decoder_layers_2_self_attn_layer_norm_weight: "f32[512]", p_model_model_decoder_layers_2_self_attn_layer_norm_bias: "f32[512]", p_model_model_decoder_layers_2_encoder_attn_q_proj_weight: "f32[512, 512]", p_model_model_decoder_layers_2_encoder_attn_q_proj_bias: "f32[512]", p_model_model_decoder_layers_2_encoder_attn_k_proj_weight: "f32[512, 512]", p_model_model_decoder_layers_2_encoder_attn_k_proj_bias: "f32[512]", p_model_model_decoder_layers_2_encoder_attn_v_proj_weight: "f32[512, 512]", p_model_model_decoder_layers_2_encoder_attn_v_proj_bias: "f32[512]", p_model_model_decoder_layers_2_encoder_attn_out_proj_weight: "f32[512, 512]", p_model_model_decoder_layers_2_encoder_attn_out_proj_bias: "f32[512]", p_model_model_decoder_layers_2_encoder_attn_layer_norm_weight: "f32[512]", p_model_model_decoder_layers_2_encoder_attn_layer_norm_bias: "f32[512]", p_model_model_decoder_layers_2_fc1_weight: "f32[2048, 512]", p_model_model_decoder_layers_2_fc1_bias: "f32[2048]", p_model_model_decoder_layers_2_fc2_weight: "f32[512, 2048]", p_model_model_decoder_layers_2_fc2_bias: "f32[512]", p_model_model_decoder_layers_2_final_layer_norm_weight: "f32[512]", p_model_model_decoder_layers_2_final_layer_norm_bias: "f32[512]", p_model_model_decoder_layers_3_self_attn_q_proj_weight: "f32[512, 512]", p_model_model_decoder_layers_3_self_attn_q_proj_bias: "f32[512]", p_model_model_decoder_layers_3_self_attn_k_proj_weight: "f32[512, 512]", p_model_model_decoder_layers_3_self_attn_k_proj_bias: "f32[512]", p_model_model_decoder_layers_3_self_attn_v_proj_weight: "f32[512, 512]", p_model_model_decoder_layers_3_self_attn_v_proj_bias: "f32[512]", p_model_model_decoder_layers_3_self_attn_out_proj_weight: "f32[512, 512]", p_model_model_decoder_layers_3_self_attn_out_proj_bias: "f32[512]", p_model_model_decoder_layers_3_self_attn_layer_norm_weight: "f32[512]", p_model_model_decoder_layers_3_self_attn_layer_norm_bias: "f32[512]", p_model_model_decoder_layers_3_encoder_attn_q_proj_weight: "f32[512, 512]", p_model_model_decoder_layers_3_encoder_attn_q_proj_bias: "f32[512]", p_model_model_decoder_layers_3_encoder_attn_k_proj_weight: "f32[512, 512]", p_model_model_decoder_layers_3_encoder_attn_k_proj_bias: "f32[512]", p_model_model_decoder_layers_3_encoder_attn_v_proj_weight: "f32[512, 512]", p_model_model_decoder_layers_3_encoder_attn_v_proj_bias: "f32[512]", p_model_model_decoder_layers_3_encoder_attn_out_proj_weight: "f32[512, 512]", p_model_model_decoder_layers_3_encoder_attn_out_proj_bias: "f32[512]", p_model_model_decoder_layers_3_encoder_attn_layer_norm_weight: "f32[512]", p_model_model_decoder_layers_3_encoder_attn_layer_norm_bias: "f32[512]", p_model_model_decoder_layers_3_fc1_weight: "f32[2048, 512]", p_model_model_decoder_layers_3_fc1_bias: "f32[2048]", p_model_model_decoder_layers_3_fc2_weight: "f32[512, 2048]", p_model_model_decoder_layers_3_fc2_bias: "f32[512]", p_model_model_decoder_layers_3_final_layer_norm_weight: "f32[512]", p_model_model_decoder_layers_3_final_layer_norm_bias: "f32[512]", p_model_model_decoder_layers_4_self_attn_q_proj_weight: "f32[512, 512]", p_model_model_decoder_layers_4_self_attn_q_proj_bias: "f32[512]", p_model_model_decoder_layers_4_self_attn_k_proj_weight: "f32[512, 512]", p_model_model_decoder_layers_4_self_attn_k_proj_bias: "f32[512]", p_model_model_decoder_layers_4_self_attn_v_proj_weight: "f32[512, 512]", p_model_model_decoder_layers_4_self_attn_v_proj_bias: "f32[512]", p_model_model_decoder_layers_4_self_attn_out_proj_weight: "f32[512, 512]", p_model_model_decoder_layers_4_self_attn_out_proj_bias: "f32[512]", p_model_model_decoder_layers_4_self_attn_layer_norm_weight: "f32[512]", p_model_model_decoder_layers_4_self_attn_layer_norm_bias: "f32[512]", p_model_model_decoder_layers_4_encoder_attn_q_proj_weight: "f32[512, 512]", p_model_model_decoder_layers_4_encoder_attn_q_proj_bias: "f32[512]", p_model_model_decoder_layers_4_encoder_attn_k_proj_weight: "f32[512, 512]", p_model_model_decoder_layers_4_encoder_attn_k_proj_bias: "f32[512]", p_model_model_decoder_layers_4_encoder_attn_v_proj_weight: "f32[512, 512]", p_model_model_decoder_layers_4_encoder_attn_v_proj_bias: "f32[512]", p_model_model_decoder_layers_4_encoder_attn_out_proj_weight: "f32[512, 512]", p_model_model_decoder_layers_4_encoder_attn_out_proj_bias: "f32[512]", p_model_model_decoder_layers_4_encoder_attn_layer_norm_weight: "f32[512]", p_model_model_decoder_layers_4_encoder_attn_layer_norm_bias: "f32[512]", p_model_model_decoder_layers_4_fc1_weight: "f32[2048, 512]", p_model_model_decoder_layers_4_fc1_bias: "f32[2048]", p_model_model_decoder_layers_4_fc2_weight: "f32[512, 2048]", p_model_model_decoder_layers_4_fc2_bias: "f32[512]", p_model_model_decoder_layers_4_final_layer_norm_weight: "f32[512]", p_model_model_decoder_layers_4_final_layer_norm_bias: "f32[512]", p_model_model_decoder_layers_5_self_attn_q_proj_weight: "f32[512, 512]", p_model_model_decoder_layers_5_self_attn_q_proj_bias: "f32[512]", p_model_model_decoder_layers_5_self_attn_k_proj_weight: "f32[512, 512]", p_model_model_decoder_layers_5_self_attn_k_proj_bias: "f32[512]", p_model_model_decoder_layers_5_self_attn_v_proj_weight: "f32[512, 512]", p_model_model_decoder_layers_5_self_attn_v_proj_bias: "f32[512]", p_model_model_decoder_layers_5_self_attn_out_proj_weight: "f32[512, 512]", p_model_model_decoder_layers_5_self_attn_out_proj_bias: "f32[512]", p_model_model_decoder_layers_5_self_attn_layer_norm_weight: "f32[512]", p_model_model_decoder_layers_5_self_attn_layer_norm_bias: "f32[512]", p_model_model_decoder_layers_5_encoder_attn_q_proj_weight: "f32[512, 512]", p_model_model_decoder_layers_5_encoder_attn_q_proj_bias: "f32[512]", p_model_model_decoder_layers_5_encoder_attn_k_proj_weight: "f32[512, 512]", p_model_model_decoder_layers_5_encoder_attn_k_proj_bias: "f32[512]", p_model_model_decoder_layers_5_encoder_attn_v_proj_weight: "f32[512, 512]", p_model_model_decoder_layers_5_encoder_attn_v_proj_bias: "f32[512]", p_model_model_decoder_layers_5_encoder_attn_out_proj_weight: "f32[512, 512]", p_model_model_decoder_layers_5_encoder_attn_out_proj_bias: "f32[512]", p_model_model_decoder_layers_5_encoder_attn_layer_norm_weight: "f32[512]", p_model_model_decoder_layers_5_encoder_attn_layer_norm_bias: "f32[512]", p_model_model_decoder_layers_5_fc1_weight: "f32[2048, 512]", p_model_model_decoder_layers_5_fc1_bias: "f32[2048]", p_model_model_decoder_layers_5_fc2_weight: "f32[512, 2048]", p_model_model_decoder_layers_5_fc2_bias: "f32[512]", p_model_model_decoder_layers_5_final_layer_norm_weight: "f32[512]", p_model_model_decoder_layers_5_final_layer_norm_bias: "f32[512]", p_model_lm_head_weight: "f32[59514, 512]", b___cache_self_attention_cache_key_cache_0: "f32[1, 8, 20, 64]", b___cache_self_attention_cache_value_cache_0: "f32[1, 8, 20, 64]", b___cache_cross_attention_cache_key_cache_0: "f32[1, 8, 40, 64]", b___cache_cross_attention_cache_value_cache_0: "f32[1, 8, 40, 64]", b___cache_self_attention_cache_key_cache_1: "f32[1, 8, 20, 64]", b___cache_self_attention_cache_value_cache_1: "f32[1, 8, 20, 64]", b___cache_cross_attention_cache_key_cache_1: "f32[1, 8, 40, 64]", b___cache_cross_attention_cache_value_cache_1: "f32[1, 8, 40, 64]", b___cache_self_attention_cache_key_cache_2: "f32[1, 8, 20, 64]", b___cache_self_attention_cache_value_cache_2: "f32[1, 8, 20, 64]", b___cache_cross_attention_cache_key_cache_2: "f32[1, 8, 40, 64]", b___cache_cross_attention_cache_value_cache_2: "f32[1, 8, 40, 64]", b___cache_self_attention_cache_key_cache_3: "f32[1, 8, 20, 64]", b___cache_self_attention_cache_value_cache_3: "f32[1, 8, 20, 64]", b___cache_cross_attention_cache_key_cache_3: "f32[1, 8, 40, 64]", b___cache_cross_attention_cache_value_cache_3: "f32[1, 8, 40, 64]", b___cache_self_attention_cache_key_cache_4: "f32[1, 8, 20, 64]", b___cache_self_attention_cache_value_cache_4: "f32[1, 8, 20, 64]", b___cache_cross_attention_cache_key_cache_4: "f32[1, 8, 40, 64]", b___cache_cross_attention_cache_value_cache_4: "f32[1, 8, 40, 64]", b___cache_self_attention_cache_key_cache_5: "f32[1, 8, 20, 64]", b___cache_self_attention_cache_value_cache_5: "f32[1, 8, 20, 64]", b___cache_cross_attention_cache_key_cache_5: "f32[1, 8, 40, 64]", b___cache_cross_attention_cache_value_cache_5: "f32[1, 8, 40, 64]", b_model_final_logits_bias: "f32[1, 59514]", c_lifted_tensor_0: "i64[]", c_lifted_tensor_1: "i64[]", c_lifted_tensor_2: "i64[]", c_lifted_tensor_3: "i64[]", c_lifted_tensor_4: "i64[1]", c_lifted_tensor_5: "f32[]", c_lifted_tensor_6: "f32[]", inputs: "i64[1, 23]"):
         # File: /home/nlong/execu-tools/transformers/src/transformers/generation/utils.py:1845 in _tensor_or_none, code: return torch.tensor(token, device=device, dtype=torch.long)
        lift_fresh_copy: "i64[]" = torch.ops.aten.lift_fresh_copy.default(c_lifted_tensor_0);  c_lifted_tensor_0 = None
        detach_: "i64[]" = torch.ops.aten.detach_.default(lift_fresh_copy);  lift_fresh_copy = detach_ = None
        
         # File: /home/nlong/execu-tools/transformers/src/transformers/generation/utils.py:1845 in _tensor_or_none, code: return torch.tensor(token, device=device, dtype=torch.long)
        lift_fresh_copy_1: "i64[]" = torch.ops.aten.lift_fresh_copy.default(c_lifted_tensor_1);  c_lifted_tensor_1 = None
        detach__1: "i64[]" = torch.ops.aten.detach_.default(lift_fresh_copy_1);  lift_fresh_copy_1 = None
        
         # File: /home/nlong/execu-tools/transformers/src/transformers/generation/utils.py:1845 in _tensor_or_none, code: return torch.tensor(token, device=device, dtype=torch.long)
        lift_fresh_copy_2: "i64[]" = torch.ops.aten.lift_fresh_copy.default(c_lifted_tensor_2);  c_lifted_tensor_2 = None
        detach__2: "i64[]" = torch.ops.aten.detach_.default(lift_fresh_copy_2);  lift_fresh_copy_2 = None
        
         # File: /home/nlong/execu-tools/transformers/src/transformers/generation/utils.py:1845 in _tensor_or_none, code: return torch.tensor(token, device=device, dtype=torch.long)
        lift_fresh_copy_3: "i64[]" = torch.ops.aten.lift_fresh_copy.default(c_lifted_tensor_3);  c_lifted_tensor_3 = None
        detach__3: "i64[]" = torch.ops.aten.detach_.default(lift_fresh_copy_3);  lift_fresh_copy_3 = None
        
         # File: /home/nlong/execu-tools/transformers/src/transformers/generation/utils.py:1860 in _prepare_special_tokens, code: eos_token_tensor = eos_token_tensor.unsqueeze(0)
        unsqueeze: "i64[1]" = torch.ops.aten.unsqueeze.default(detach__1, 0);  detach__1 = None
        
         # File: /home/nlong/execu-tools/transformers/src/transformers/generation/utils.py:593 in _prepare_attention_mask_for_generation, code: default_attention_mask = torch.ones(inputs_tensor.shape[:2], dtype=torch.long, device=inputs_tensor.device)
        ones: "i64[1, 23]" = torch.ops.aten.ones.default([1, 23], dtype = torch.int64, device = device(type='cpu'), pin_memory = False)
        
         # File: /home/nlong/execu-tools/transformers/src/transformers/pytorch_utils.py:338 in isin_mps_friendly, code: return torch.isin(elements, test_elements)
        isin: "b8[1, 23]" = torch.ops.aten.isin.Tensor_Tensor(inputs, detach__2)
        
         # File: /home/nlong/execu-tools/transformers/src/transformers/generation/utils.py:602 in _prepare_attention_mask_for_generation, code: isin_mps_friendly(elements=inputs_tensor, test_elements=pad_token_id).any()
        any_1: "b8[]" = torch.ops.aten.any.default(isin);  isin = None
        
         # File: /home/nlong/execu-tools/transformers/src/transformers/pytorch_utils.py:338 in isin_mps_friendly, code: return torch.isin(elements, test_elements)
        isin_1: "b8[1]" = torch.ops.aten.isin.Tensor_Tensor(unsqueeze, detach__2)
        
         # File: /home/nlong/execu-tools/transformers/src/transformers/generation/utils.py:605 in _prepare_attention_mask_for_generation, code: isin_mps_friendly(elements=eos_token_id, test_elements=pad_token_id).any()
        any_2: "b8[]" = torch.ops.aten.any.default(isin_1);  isin_1 = None
        
         # File: /home/nlong/execu-tools/transformers/src/transformers/generation/utils.py:604 in _prepare_attention_mask_for_generation, code: is_pad_token_not_equal_to_eos_token_id = (eos_token_id is None) or ~(
        bitwise_not: "b8[]" = torch.ops.aten.bitwise_not.default(any_2);  any_2 = None
        
         # File: /home/nlong/execu-tools/transformers/src/transformers/generation/utils.py:607 in _prepare_attention_mask_for_generation, code: can_infer_attention_mask = is_pad_token_in_inputs * is_pad_token_not_equal_to_eos_token_id
        mul: "b8[]" = torch.ops.aten.mul.Tensor(any_1, bitwise_not);  any_1 = bitwise_not = None
        
         # File: /home/nlong/execu-tools/transformers/src/transformers/generation/utils.py:608 in _prepare_attention_mask_for_generation, code: attention_mask_from_padding = inputs_tensor.ne(pad_token_id).long()
        ne: "b8[1, 23]" = torch.ops.aten.ne.Tensor(inputs, detach__2)
        to: "i64[1, 23]" = torch.ops.aten.to.dtype(ne, torch.int64);  ne = None
        
         # File: /home/nlong/execu-tools/transformers/src/transformers/generation/utils.py:611 in _prepare_attention_mask_for_generation, code: attention_mask_from_padding * can_infer_attention_mask + default_attention_mask * ~can_infer_attention_mask
        mul_1: "i64[1, 23]" = torch.ops.aten.mul.Tensor(to, mul);  to = None
        bitwise_not_1: "b8[]" = torch.ops.aten.bitwise_not.default(mul);  mul = None
        mul_2: "i64[1, 23]" = torch.ops.aten.mul.Tensor(ones, bitwise_not_1);  ones = bitwise_not_1 = None
        add: "i64[1, 23]" = torch.ops.aten.add.Tensor(mul_1, mul_2);  mul_1 = mul_2 = None
        
         # File: /home/nlong/execu-tools/transformers/src/transformers/models/marian/modeling_marian.py:728 in forward, code: input_ids = input_ids.view(-1, input_shape[-1])
        view: "i64[1, 23]" = torch.ops.aten.view.default(inputs, [-1, 23]);  inputs = None
        
         # File: /home/nlong/execu-tools/transformers/src/transformers/models/marian/modeling_marian.py:735 in forward, code: inputs_embeds = self.embed_tokens(input_ids) * self.embed_scale
        embedding: "f32[1, 23, 512]" = torch.ops.aten.embedding.default(p_model_lm_head_weight, view, 59513);  view = None
        mul_3: "f32[1, 23, 512]" = torch.ops.aten.mul.Tensor(embedding, 22.627416997969522);  embedding = None
        
         # File: /home/nlong/execu-tools/transformers/src/transformers/models/marian/modeling_marian.py:102 in forward, code: positions = torch.arange(
        arange: "i64[23]" = torch.ops.aten.arange.start(0, 23, dtype = torch.int64, device = device(type='cpu'), pin_memory = False)
        
         # File: /home/nlong/execu-tools/transformers/src/transformers/models/marian/modeling_marian.py:107 in forward, code: return super().forward(positions)
        embedding_1: "f32[23, 512]" = torch.ops.aten.embedding.default(p_model_model_encoder_embed_positions_weight, arange);  p_model_model_encoder_embed_positions_weight = arange = None
        
         # File: /home/nlong/execu-tools/transformers/src/transformers/models/marian/modeling_marian.py:739 in forward, code: hidden_states = inputs_embeds + embed_pos
        add_1: "f32[1, 23, 512]" = torch.ops.aten.add.Tensor(mul_3, embedding_1);  mul_3 = embedding_1 = None
        
         # File: /home/nlong/execu-tools/transformers/src/transformers/models/marian/modeling_marian.py:740 in forward, code: hidden_states = nn.functional.dropout(hidden_states, p=self.dropout, training=self.training)
        dropout: "f32[1, 23, 512]" = torch.ops.aten.dropout.default(add_1, 0.1, False);  add_1 = None
        
         # File: /home/nlong/execu-tools/transformers/src/transformers/modeling_attn_mask_utils.py:188 in _expand_mask, code: expanded_mask = mask[:, None, None, :].expand(bsz, 1, tgt_len, src_len).to(dtype)
        slice_1: "i64[1, 23]" = torch.ops.aten.slice.Tensor(add, 0, 0, 9223372036854775807)
        unsqueeze_1: "i64[1, 1, 23]" = torch.ops.aten.unsqueeze.default(slice_1, 1);  slice_1 = None
        unsqueeze_2: "i64[1, 1, 1, 23]" = torch.ops.aten.unsqueeze.default(unsqueeze_1, 2);  unsqueeze_1 = None
        slice_2: "i64[1, 1, 1, 23]" = torch.ops.aten.slice.Tensor(unsqueeze_2, 3, 0, 9223372036854775807);  unsqueeze_2 = None
        expand: "i64[1, 1, 23, 23]" = torch.ops.aten.expand.default(slice_2, [1, 1, 23, 23]);  slice_2 = None
        to_1: "f32[1, 1, 23, 23]" = torch.ops.aten.to.dtype(expand, torch.float32);  expand = None
        
         # File: /home/nlong/execu-tools/transformers/src/transformers/modeling_attn_mask_utils.py:190 in _expand_mask, code: inverted_mask = 1.0 - expanded_mask
        rsub: "f32[1, 1, 23, 23]" = torch.ops.aten.rsub.Scalar(to_1, 1.0);  to_1 = None
        
         # File: /home/nlong/execu-tools/transformers/src/transformers/modeling_attn_mask_utils.py:192 in _expand_mask, code: return inverted_mask.masked_fill(inverted_mask.to(torch.bool), torch.finfo(dtype).min)
        to_2: "b8[1, 1, 23, 23]" = torch.ops.aten.to.dtype(rsub, torch.bool)
        masked_fill: "f32[1, 1, 23, 23]" = torch.ops.aten.masked_fill.Scalar(rsub, to_2, -3.4028234663852886e+38);  rsub = to_2 = None
        
         # File: /home/nlong/execu-tools/transformers/src/transformers/models/marian/modeling_marian.py:176 in forward, code: query_states = self._shape(self.q_proj(hidden_states) * self.scaling, tgt_len, bsz)
        linear: "f32[1, 23, 512]" = torch.ops.aten.linear.default(dropout, p_model_model_encoder_layers_0_self_attn_q_proj_weight, p_model_model_encoder_layers_0_self_attn_q_proj_bias);  p_model_model_encoder_layers_0_self_attn_q_proj_weight = p_model_model_encoder_layers_0_self_attn_q_proj_bias = None
        mul_4: "f32[1, 23, 512]" = torch.ops.aten.mul.Tensor(linear, 0.125);  linear = None
        
         # File: /home/nlong/execu-tools/transformers/src/transformers/models/marian/modeling_marian.py:155 in _shape, code: return tensor.view(bsz, seq_len, self.num_heads, self.head_dim).transpose(1, 2).contiguous()
        view_1: "f32[1, 23, 8, 64]" = torch.ops.aten.view.default(mul_4, [1, 23, 8, 64]);  mul_4 = None
        transpose: "f32[1, 8, 23, 64]" = torch.ops.aten.transpose.int(view_1, 1, 2);  view_1 = None
        contiguous: "f32[1, 8, 23, 64]" = torch.ops.aten.contiguous.default(transpose);  transpose = None
        
         # File: /home/nlong/execu-tools/transformers/src/transformers/models/marian/modeling_marian.py:202 in forward, code: key_states = self._shape(self.k_proj(current_states), -1, bsz)
        linear_1: "f32[1, 23, 512]" = torch.ops.aten.linear.default(dropout, p_model_model_encoder_layers_0_self_attn_k_proj_weight, p_model_model_encoder_layers_0_self_attn_k_proj_bias);  p_model_model_encoder_layers_0_self_attn_k_proj_weight = p_model_model_encoder_layers_0_self_attn_k_proj_bias = None
        
         # File: /home/nlong/execu-tools/transformers/src/transformers/models/marian/modeling_marian.py:155 in _shape, code: return tensor.view(bsz, seq_len, self.num_heads, self.head_dim).transpose(1, 2).contiguous()
        view_2: "f32[1, 23, 8, 64]" = torch.ops.aten.view.default(linear_1, [1, -1, 8, 64]);  linear_1 = None
        transpose_1: "f32[1, 8, 23, 64]" = torch.ops.aten.transpose.int(view_2, 1, 2);  view_2 = None
        contiguous_1: "f32[1, 8, 23, 64]" = torch.ops.aten.contiguous.default(transpose_1);  transpose_1 = None
        
         # File: /home/nlong/execu-tools/transformers/src/transformers/models/marian/modeling_marian.py:203 in forward, code: value_states = self._shape(self.v_proj(current_states), -1, bsz)
        linear_2: "f32[1, 23, 512]" = torch.ops.aten.linear.default(dropout, p_model_model_encoder_layers_0_self_attn_v_proj_weight, p_model_model_encoder_layers_0_self_attn_v_proj_bias);  p_model_model_encoder_layers_0_self_attn_v_proj_weight = p_model_model_encoder_layers_0_self_attn_v_proj_bias = None
        
         # File: /home/nlong/execu-tools/transformers/src/transformers/models/marian/modeling_marian.py:155 in _shape, code: return tensor.view(bsz, seq_len, self.num_heads, self.head_dim).transpose(1, 2).contiguous()
        view_3: "f32[1, 23, 8, 64]" = torch.ops.aten.view.default(linear_2, [1, -1, 8, 64]);  linear_2 = None
        transpose_2: "f32[1, 8, 23, 64]" = torch.ops.aten.transpose.int(view_3, 1, 2);  view_3 = None
        contiguous_2: "f32[1, 8, 23, 64]" = torch.ops.aten.contiguous.default(transpose_2);  transpose_2 = None
        
         # File: /home/nlong/execu-tools/transformers/src/transformers/models/marian/modeling_marian.py:227 in forward, code: attn_weights = torch.matmul(query_states, key_states.transpose(2, 3))
        transpose_3: "f32[1, 8, 64, 23]" = torch.ops.aten.transpose.int(contiguous_1, 2, 3);  contiguous_1 = None
        matmul: "f32[1, 8, 23, 23]" = torch.ops.aten.matmul.default(contiguous, transpose_3);  contiguous = transpose_3 = None
        
         # File: /home/nlong/execu-tools/transformers/src/transformers/models/marian/modeling_marian.py:230 in forward, code: causal_mask = attention_mask[:, :, :, : key_states.shape[-2]]
        slice_3: "f32[1, 1, 23, 23]" = torch.ops.aten.slice.Tensor(masked_fill, 0, 0, 9223372036854775807)
        slice_4: "f32[1, 1, 23, 23]" = torch.ops.aten.slice.Tensor(slice_3, 1, 0, 9223372036854775807);  slice_3 = None
        slice_5: "f32[1, 1, 23, 23]" = torch.ops.aten.slice.Tensor(slice_4, 2, 0, 9223372036854775807);  slice_4 = None
        
         # File: /home/nlong/execu-tools/transformers/src/transformers/models/marian/modeling_marian.py:231 in forward, code: attn_weights = attn_weights + causal_mask
        add_2: "f32[1, 8, 23, 23]" = torch.ops.aten.add.Tensor(matmul, slice_5);  matmul = slice_5 = None
        
         # File: /home/nlong/execu-tools/transformers/src/transformers/models/marian/modeling_marian.py:233 in forward, code: attn_weights = nn.functional.softmax(attn_weights, dim=-1)
        softmax: "f32[1, 8, 23, 23]" = torch.ops.aten.softmax.int(add_2, -1);  add_2 = None
        
         # File: /home/nlong/execu-tools/transformers/src/transformers/models/marian/modeling_marian.py:243 in forward, code: attn_probs = nn.functional.dropout(attn_weights, p=self.dropout, training=self.training)
        dropout_1: "f32[1, 8, 23, 23]" = torch.ops.aten.dropout.default(softmax, 0.0, False);  softmax = None
        
         # File: /home/nlong/execu-tools/transformers/src/transformers/models/marian/modeling_marian.py:244 in forward, code: attn_output = torch.matmul(attn_probs, value_states)
        matmul_1: "f32[1, 8, 23, 64]" = torch.ops.aten.matmul.default(dropout_1, contiguous_2);  dropout_1 = contiguous_2 = None
        
         # File: /home/nlong/execu-tools/transformers/src/transformers/models/marian/modeling_marian.py:252 in forward, code: attn_output = attn_output.transpose(1, 2)
        transpose_4: "f32[1, 23, 8, 64]" = torch.ops.aten.transpose.int(matmul_1, 1, 2);  matmul_1 = None
        
         # File: /home/nlong/execu-tools/transformers/src/transformers/models/marian/modeling_marian.py:255 in forward, code: attn_output = attn_output.reshape(bsz, tgt_len, self.embed_dim)
        reshape: "f32[1, 23, 512]" = torch.ops.aten.reshape.default(transpose_4, [1, 23, 512]);  transpose_4 = None
        
         # File: /home/nlong/execu-tools/transformers/src/transformers/models/marian/modeling_marian.py:257 in forward, code: attn_output = self.out_proj(attn_output)
        linear_3: "f32[1, 23, 512]" = torch.ops.aten.linear.default(reshape, p_model_model_encoder_layers_0_self_attn_out_proj_weight, p_model_model_encoder_layers_0_self_attn_out_proj_bias);  reshape = p_model_model_encoder_layers_0_self_attn_out_proj_weight = p_model_model_encoder_layers_0_self_attn_out_proj_bias = None
        
         # File: /home/nlong/execu-tools/transformers/src/transformers/models/marian/modeling_marian.py:307 in forward, code: hidden_states = nn.functional.dropout(hidden_states, p=self.dropout, training=self.training)
        dropout_2: "f32[1, 23, 512]" = torch.ops.aten.dropout.default(linear_3, 0.1, False);  linear_3 = None
        
         # File: /home/nlong/execu-tools/transformers/src/transformers/models/marian/modeling_marian.py:308 in forward, code: hidden_states = residual + hidden_states
        add_3: "f32[1, 23, 512]" = torch.ops.aten.add.Tensor(dropout, dropout_2);  dropout = dropout_2 = None
        
         # File: /home/nlong/execu-tools/transformers/src/transformers/models/marian/modeling_marian.py:309 in forward, code: hidden_states = self.self_attn_layer_norm(hidden_states)
        layer_norm: "f32[1, 23, 512]" = torch.ops.aten.layer_norm.default(add_3, [512], p_model_model_encoder_layers_0_self_attn_layer_norm_weight, p_model_model_encoder_layers_0_self_attn_layer_norm_bias);  add_3 = p_model_model_encoder_layers_0_self_attn_layer_norm_weight = p_model_model_encoder_layers_0_self_attn_layer_norm_bias = None
        
         # File: /home/nlong/execu-tools/transformers/src/transformers/models/marian/modeling_marian.py:312 in forward, code: hidden_states = self.activation_fn(self.fc1(hidden_states))
        linear_4: "f32[1, 23, 2048]" = torch.ops.aten.linear.default(layer_norm, p_model_model_encoder_layers_0_fc1_weight, p_model_model_encoder_layers_0_fc1_bias);  p_model_model_encoder_layers_0_fc1_weight = p_model_model_encoder_layers_0_fc1_bias = None
        silu: "f32[1, 23, 2048]" = torch.ops.aten.silu.default(linear_4);  linear_4 = None
        
         # File: /home/nlong/execu-tools/transformers/src/transformers/models/marian/modeling_marian.py:313 in forward, code: hidden_states = nn.functional.dropout(hidden_states, p=self.activation_dropout, training=self.training)
        dropout_3: "f32[1, 23, 2048]" = torch.ops.aten.dropout.default(silu, 0.0, False);  silu = None
        
         # File: /home/nlong/execu-tools/transformers/src/transformers/models/marian/modeling_marian.py:314 in forward, code: hidden_states = self.fc2(hidden_states)
        linear_5: "f32[1, 23, 512]" = torch.ops.aten.linear.default(dropout_3, p_model_model_encoder_layers_0_fc2_weight, p_model_model_encoder_layers_0_fc2_bias);  dropout_3 = p_model_model_encoder_layers_0_fc2_weight = p_model_model_encoder_layers_0_fc2_bias = None
        
         # File: /home/nlong/execu-tools/transformers/src/transformers/models/marian/modeling_marian.py:315 in forward, code: hidden_states = nn.functional.dropout(hidden_states, p=self.dropout, training=self.training)
        dropout_4: "f32[1, 23, 512]" = torch.ops.aten.dropout.default(linear_5, 0.1, False);  linear_5 = None
        
         # File: /home/nlong/execu-tools/transformers/src/transformers/models/marian/modeling_marian.py:316 in forward, code: hidden_states = residual + hidden_states
        add_4: "f32[1, 23, 512]" = torch.ops.aten.add.Tensor(layer_norm, dropout_4);  layer_norm = dropout_4 = None
        
         # File: /home/nlong/execu-tools/transformers/src/transformers/models/marian/modeling_marian.py:317 in forward, code: hidden_states = self.final_layer_norm(hidden_states)
        layer_norm_1: "f32[1, 23, 512]" = torch.ops.aten.layer_norm.default(add_4, [512], p_model_model_encoder_layers_0_final_layer_norm_weight, p_model_model_encoder_layers_0_final_layer_norm_bias);  add_4 = p_model_model_encoder_layers_0_final_layer_norm_weight = p_model_model_encoder_layers_0_final_layer_norm_bias = None
        
         # File: /home/nlong/execu-tools/transformers/src/transformers/models/marian/modeling_marian.py:176 in forward, code: query_states = self._shape(self.q_proj(hidden_states) * self.scaling, tgt_len, bsz)
        linear_6: "f32[1, 23, 512]" = torch.ops.aten.linear.default(layer_norm_1, p_model_model_encoder_layers_1_self_attn_q_proj_weight, p_model_model_encoder_layers_1_self_attn_q_proj_bias);  p_model_model_encoder_layers_1_self_attn_q_proj_weight = p_model_model_encoder_layers_1_self_attn_q_proj_bias = None
        mul_5: "f32[1, 23, 512]" = torch.ops.aten.mul.Tensor(linear_6, 0.125);  linear_6 = None
        
         # File: /home/nlong/execu-tools/transformers/src/transformers/models/marian/modeling_marian.py:155 in _shape, code: return tensor.view(bsz, seq_len, self.num_heads, self.head_dim).transpose(1, 2).contiguous()
        view_4: "f32[1, 23, 8, 64]" = torch.ops.aten.view.default(mul_5, [1, 23, 8, 64]);  mul_5 = None
        transpose_5: "f32[1, 8, 23, 64]" = torch.ops.aten.transpose.int(view_4, 1, 2);  view_4 = None
        contiguous_3: "f32[1, 8, 23, 64]" = torch.ops.aten.contiguous.default(transpose_5);  transpose_5 = None
        
         # File: /home/nlong/execu-tools/transformers/src/transformers/models/marian/modeling_marian.py:202 in forward, code: key_states = self._shape(self.k_proj(current_states), -1, bsz)
        linear_7: "f32[1, 23, 512]" = torch.ops.aten.linear.default(layer_norm_1, p_model_model_encoder_layers_1_self_attn_k_proj_weight, p_model_model_encoder_layers_1_self_attn_k_proj_bias);  p_model_model_encoder_layers_1_self_attn_k_proj_weight = p_model_model_encoder_layers_1_self_attn_k_proj_bias = None
        
         # File: /home/nlong/execu-tools/transformers/src/transformers/models/marian/modeling_marian.py:155 in _shape, code: return tensor.view(bsz, seq_len, self.num_heads, self.head_dim).transpose(1, 2).contiguous()
        view_5: "f32[1, 23, 8, 64]" = torch.ops.aten.view.default(linear_7, [1, -1, 8, 64]);  linear_7 = None
        transpose_6: "f32[1, 8, 23, 64]" = torch.ops.aten.transpose.int(view_5, 1, 2);  view_5 = None
        contiguous_4: "f32[1, 8, 23, 64]" = torch.ops.aten.contiguous.default(transpose_6);  transpose_6 = None
        
         # File: /home/nlong/execu-tools/transformers/src/transformers/models/marian/modeling_marian.py:203 in forward, code: value_states = self._shape(self.v_proj(current_states), -1, bsz)
        linear_8: "f32[1, 23, 512]" = torch.ops.aten.linear.default(layer_norm_1, p_model_model_encoder_layers_1_self_attn_v_proj_weight, p_model_model_encoder_layers_1_self_attn_v_proj_bias);  p_model_model_encoder_layers_1_self_attn_v_proj_weight = p_model_model_encoder_layers_1_self_attn_v_proj_bias = None
        
         # File: /home/nlong/execu-tools/transformers/src/transformers/models/marian/modeling_marian.py:155 in _shape, code: return tensor.view(bsz, seq_len, self.num_heads, self.head_dim).transpose(1, 2).contiguous()
        view_6: "f32[1, 23, 8, 64]" = torch.ops.aten.view.default(linear_8, [1, -1, 8, 64]);  linear_8 = None
        transpose_7: "f32[1, 8, 23, 64]" = torch.ops.aten.transpose.int(view_6, 1, 2);  view_6 = None
        contiguous_5: "f32[1, 8, 23, 64]" = torch.ops.aten.contiguous.default(transpose_7);  transpose_7 = None
        
         # File: /home/nlong/execu-tools/transformers/src/transformers/models/marian/modeling_marian.py:227 in forward, code: attn_weights = torch.matmul(query_states, key_states.transpose(2, 3))
        transpose_8: "f32[1, 8, 64, 23]" = torch.ops.aten.transpose.int(contiguous_4, 2, 3);  contiguous_4 = None
        matmul_2: "f32[1, 8, 23, 23]" = torch.ops.aten.matmul.default(contiguous_3, transpose_8);  contiguous_3 = transpose_8 = None
        
         # File: /home/nlong/execu-tools/transformers/src/transformers/models/marian/modeling_marian.py:230 in forward, code: causal_mask = attention_mask[:, :, :, : key_states.shape[-2]]
        slice_6: "f32[1, 1, 23, 23]" = torch.ops.aten.slice.Tensor(masked_fill, 0, 0, 9223372036854775807)
        slice_7: "f32[1, 1, 23, 23]" = torch.ops.aten.slice.Tensor(slice_6, 1, 0, 9223372036854775807);  slice_6 = None
        slice_8: "f32[1, 1, 23, 23]" = torch.ops.aten.slice.Tensor(slice_7, 2, 0, 9223372036854775807);  slice_7 = None
        
         # File: /home/nlong/execu-tools/transformers/src/transformers/models/marian/modeling_marian.py:231 in forward, code: attn_weights = attn_weights + causal_mask
        add_5: "f32[1, 8, 23, 23]" = torch.ops.aten.add.Tensor(matmul_2, slice_8);  matmul_2 = slice_8 = None
        
         # File: /home/nlong/execu-tools/transformers/src/transformers/models/marian/modeling_marian.py:233 in forward, code: attn_weights = nn.functional.softmax(attn_weights, dim=-1)
        softmax_1: "f32[1, 8, 23, 23]" = torch.ops.aten.softmax.int(add_5, -1);  add_5 = None
        
         # File: /home/nlong/execu-tools/transformers/src/transformers/models/marian/modeling_marian.py:243 in forward, code: attn_probs = nn.functional.dropout(attn_weights, p=self.dropout, training=self.training)
        dropout_5: "f32[1, 8, 23, 23]" = torch.ops.aten.dropout.default(softmax_1, 0.0, False);  softmax_1 = None
        
         # File: /home/nlong/execu-tools/transformers/src/transformers/models/marian/modeling_marian.py:244 in forward, code: attn_output = torch.matmul(attn_probs, value_states)
        matmul_3: "f32[1, 8, 23, 64]" = torch.ops.aten.matmul.default(dropout_5, contiguous_5);  dropout_5 = contiguous_5 = None
        
         # File: /home/nlong/execu-tools/transformers/src/transformers/models/marian/modeling_marian.py:252 in forward, code: attn_output = attn_output.transpose(1, 2)
        transpose_9: "f32[1, 23, 8, 64]" = torch.ops.aten.transpose.int(matmul_3, 1, 2);  matmul_3 = None
        
         # File: /home/nlong/execu-tools/transformers/src/transformers/models/marian/modeling_marian.py:255 in forward, code: attn_output = attn_output.reshape(bsz, tgt_len, self.embed_dim)
        reshape_1: "f32[1, 23, 512]" = torch.ops.aten.reshape.default(transpose_9, [1, 23, 512]);  transpose_9 = None
        
         # File: /home/nlong/execu-tools/transformers/src/transformers/models/marian/modeling_marian.py:257 in forward, code: attn_output = self.out_proj(attn_output)
        linear_9: "f32[1, 23, 512]" = torch.ops.aten.linear.default(reshape_1, p_model_model_encoder_layers_1_self_attn_out_proj_weight, p_model_model_encoder_layers_1_self_attn_out_proj_bias);  reshape_1 = p_model_model_encoder_layers_1_self_attn_out_proj_weight = p_model_model_encoder_layers_1_self_attn_out_proj_bias = None
        
         # File: /home/nlong/execu-tools/transformers/src/transformers/models/marian/modeling_marian.py:307 in forward, code: hidden_states = nn.functional.dropout(hidden_states, p=self.dropout, training=self.training)
        dropout_6: "f32[1, 23, 512]" = torch.ops.aten.dropout.default(linear_9, 0.1, False);  linear_9 = None
        
         # File: /home/nlong/execu-tools/transformers/src/transformers/models/marian/modeling_marian.py:308 in forward, code: hidden_states = residual + hidden_states
        add_6: "f32[1, 23, 512]" = torch.ops.aten.add.Tensor(layer_norm_1, dropout_6);  layer_norm_1 = dropout_6 = None
        
         # File: /home/nlong/execu-tools/transformers/src/transformers/models/marian/modeling_marian.py:309 in forward, code: hidden_states = self.self_attn_layer_norm(hidden_states)
        layer_norm_2: "f32[1, 23, 512]" = torch.ops.aten.layer_norm.default(add_6, [512], p_model_model_encoder_layers_1_self_attn_layer_norm_weight, p_model_model_encoder_layers_1_self_attn_layer_norm_bias);  add_6 = p_model_model_encoder_layers_1_self_attn_layer_norm_weight = p_model_model_encoder_layers_1_self_attn_layer_norm_bias = None
        
         # File: /home/nlong/execu-tools/transformers/src/transformers/models/marian/modeling_marian.py:312 in forward, code: hidden_states = self.activation_fn(self.fc1(hidden_states))
        linear_10: "f32[1, 23, 2048]" = torch.ops.aten.linear.default(layer_norm_2, p_model_model_encoder_layers_1_fc1_weight, p_model_model_encoder_layers_1_fc1_bias);  p_model_model_encoder_layers_1_fc1_weight = p_model_model_encoder_layers_1_fc1_bias = None
        silu_1: "f32[1, 23, 2048]" = torch.ops.aten.silu.default(linear_10);  linear_10 = None
        
         # File: /home/nlong/execu-tools/transformers/src/transformers/models/marian/modeling_marian.py:313 in forward, code: hidden_states = nn.functional.dropout(hidden_states, p=self.activation_dropout, training=self.training)
        dropout_7: "f32[1, 23, 2048]" = torch.ops.aten.dropout.default(silu_1, 0.0, False);  silu_1 = None
        
         # File: /home/nlong/execu-tools/transformers/src/transformers/models/marian/modeling_marian.py:314 in forward, code: hidden_states = self.fc2(hidden_states)
        linear_11: "f32[1, 23, 512]" = torch.ops.aten.linear.default(dropout_7, p_model_model_encoder_layers_1_fc2_weight, p_model_model_encoder_layers_1_fc2_bias);  dropout_7 = p_model_model_encoder_layers_1_fc2_weight = p_model_model_encoder_layers_1_fc2_bias = None
        
         # File: /home/nlong/execu-tools/transformers/src/transformers/models/marian/modeling_marian.py:315 in forward, code: hidden_states = nn.functional.dropout(hidden_states, p=self.dropout, training=self.training)
        dropout_8: "f32[1, 23, 512]" = torch.ops.aten.dropout.default(linear_11, 0.1, False);  linear_11 = None
        
         # File: /home/nlong/execu-tools/transformers/src/transformers/models/marian/modeling_marian.py:316 in forward, code: hidden_states = residual + hidden_states
        add_7: "f32[1, 23, 512]" = torch.ops.aten.add.Tensor(layer_norm_2, dropout_8);  layer_norm_2 = dropout_8 = None
        
         # File: /home/nlong/execu-tools/transformers/src/transformers/models/marian/modeling_marian.py:317 in forward, code: hidden_states = self.final_layer_norm(hidden_states)
        layer_norm_3: "f32[1, 23, 512]" = torch.ops.aten.layer_norm.default(add_7, [512], p_model_model_encoder_layers_1_final_layer_norm_weight, p_model_model_encoder_layers_1_final_layer_norm_bias);  add_7 = p_model_model_encoder_layers_1_final_layer_norm_weight = p_model_model_encoder_layers_1_final_layer_norm_bias = None
        
         # File: /home/nlong/execu-tools/transformers/src/transformers/models/marian/modeling_marian.py:176 in forward, code: query_states = self._shape(self.q_proj(hidden_states) * self.scaling, tgt_len, bsz)
        linear_12: "f32[1, 23, 512]" = torch.ops.aten.linear.default(layer_norm_3, p_model_model_encoder_layers_2_self_attn_q_proj_weight, p_model_model_encoder_layers_2_self_attn_q_proj_bias);  p_model_model_encoder_layers_2_self_attn_q_proj_weight = p_model_model_encoder_layers_2_self_attn_q_proj_bias = None
        mul_6: "f32[1, 23, 512]" = torch.ops.aten.mul.Tensor(linear_12, 0.125);  linear_12 = None
        
         # File: /home/nlong/execu-tools/transformers/src/transformers/models/marian/modeling_marian.py:155 in _shape, code: return tensor.view(bsz, seq_len, self.num_heads, self.head_dim).transpose(1, 2).contiguous()
        view_7: "f32[1, 23, 8, 64]" = torch.ops.aten.view.default(mul_6, [1, 23, 8, 64]);  mul_6 = None
        transpose_10: "f32[1, 8, 23, 64]" = torch.ops.aten.transpose.int(view_7, 1, 2);  view_7 = None
        contiguous_6: "f32[1, 8, 23, 64]" = torch.ops.aten.contiguous.default(transpose_10);  transpose_10 = None
        
         # File: /home/nlong/execu-tools/transformers/src/transformers/models/marian/modeling_marian.py:202 in forward, code: key_states = self._shape(self.k_proj(current_states), -1, bsz)
        linear_13: "f32[1, 23, 512]" = torch.ops.aten.linear.default(layer_norm_3, p_model_model_encoder_layers_2_self_attn_k_proj_weight, p_model_model_encoder_layers_2_self_attn_k_proj_bias);  p_model_model_encoder_layers_2_self_attn_k_proj_weight = p_model_model_encoder_layers_2_self_attn_k_proj_bias = None
        
         # File: /home/nlong/execu-tools/transformers/src/transformers/models/marian/modeling_marian.py:155 in _shape, code: return tensor.view(bsz, seq_len, self.num_heads, self.head_dim).transpose(1, 2).contiguous()
        view_8: "f32[1, 23, 8, 64]" = torch.ops.aten.view.default(linear_13, [1, -1, 8, 64]);  linear_13 = None
        transpose_11: "f32[1, 8, 23, 64]" = torch.ops.aten.transpose.int(view_8, 1, 2);  view_8 = None
        contiguous_7: "f32[1, 8, 23, 64]" = torch.ops.aten.contiguous.default(transpose_11);  transpose_11 = None
        
         # File: /home/nlong/execu-tools/transformers/src/transformers/models/marian/modeling_marian.py:203 in forward, code: value_states = self._shape(self.v_proj(current_states), -1, bsz)
        linear_14: "f32[1, 23, 512]" = torch.ops.aten.linear.default(layer_norm_3, p_model_model_encoder_layers_2_self_attn_v_proj_weight, p_model_model_encoder_layers_2_self_attn_v_proj_bias);  p_model_model_encoder_layers_2_self_attn_v_proj_weight = p_model_model_encoder_layers_2_self_attn_v_proj_bias = None
        
         # File: /home/nlong/execu-tools/transformers/src/transformers/models/marian/modeling_marian.py:155 in _shape, code: return tensor.view(bsz, seq_len, self.num_heads, self.head_dim).transpose(1, 2).contiguous()
        view_9: "f32[1, 23, 8, 64]" = torch.ops.aten.view.default(linear_14, [1, -1, 8, 64]);  linear_14 = None
        transpose_12: "f32[1, 8, 23, 64]" = torch.ops.aten.transpose.int(view_9, 1, 2);  view_9 = None
        contiguous_8: "f32[1, 8, 23, 64]" = torch.ops.aten.contiguous.default(transpose_12);  transpose_12 = None
        
         # File: /home/nlong/execu-tools/transformers/src/transformers/models/marian/modeling_marian.py:227 in forward, code: attn_weights = torch.matmul(query_states, key_states.transpose(2, 3))
        transpose_13: "f32[1, 8, 64, 23]" = torch.ops.aten.transpose.int(contiguous_7, 2, 3);  contiguous_7 = None
        matmul_4: "f32[1, 8, 23, 23]" = torch.ops.aten.matmul.default(contiguous_6, transpose_13);  contiguous_6 = transpose_13 = None
        
         # File: /home/nlong/execu-tools/transformers/src/transformers/models/marian/modeling_marian.py:230 in forward, code: causal_mask = attention_mask[:, :, :, : key_states.shape[-2]]
        slice_9: "f32[1, 1, 23, 23]" = torch.ops.aten.slice.Tensor(masked_fill, 0, 0, 9223372036854775807)
        slice_10: "f32[1, 1, 23, 23]" = torch.ops.aten.slice.Tensor(slice_9, 1, 0, 9223372036854775807);  slice_9 = None
        slice_11: "f32[1, 1, 23, 23]" = torch.ops.aten.slice.Tensor(slice_10, 2, 0, 9223372036854775807);  slice_10 = None
        
         # File: /home/nlong/execu-tools/transformers/src/transformers/models/marian/modeling_marian.py:231 in forward, code: attn_weights = attn_weights + causal_mask
        add_8: "f32[1, 8, 23, 23]" = torch.ops.aten.add.Tensor(matmul_4, slice_11);  matmul_4 = slice_11 = None
        
         # File: /home/nlong/execu-tools/transformers/src/transformers/models/marian/modeling_marian.py:233 in forward, code: attn_weights = nn.functional.softmax(attn_weights, dim=-1)
        softmax_2: "f32[1, 8, 23, 23]" = torch.ops.aten.softmax.int(add_8, -1);  add_8 = None
        
         # File: /home/nlong/execu-tools/transformers/src/transformers/models/marian/modeling_marian.py:243 in forward, code: attn_probs = nn.functional.dropout(attn_weights, p=self.dropout, training=self.training)
        dropout_9: "f32[1, 8, 23, 23]" = torch.ops.aten.dropout.default(softmax_2, 0.0, False);  softmax_2 = None
        
         # File: /home/nlong/execu-tools/transformers/src/transformers/models/marian/modeling_marian.py:244 in forward, code: attn_output = torch.matmul(attn_probs, value_states)
        matmul_5: "f32[1, 8, 23, 64]" = torch.ops.aten.matmul.default(dropout_9, contiguous_8);  dropout_9 = contiguous_8 = None
        
         # File: /home/nlong/execu-tools/transformers/src/transformers/models/marian/modeling_marian.py:252 in forward, code: attn_output = attn_output.transpose(1, 2)
        transpose_14: "f32[1, 23, 8, 64]" = torch.ops.aten.transpose.int(matmul_5, 1, 2);  matmul_5 = None
        
         # File: /home/nlong/execu-tools/transformers/src/transformers/models/marian/modeling_marian.py:255 in forward, code: attn_output = attn_output.reshape(bsz, tgt_len, self.embed_dim)
        reshape_2: "f32[1, 23, 512]" = torch.ops.aten.reshape.default(transpose_14, [1, 23, 512]);  transpose_14 = None
        
         # File: /home/nlong/execu-tools/transformers/src/transformers/models/marian/modeling_marian.py:257 in forward, code: attn_output = self.out_proj(attn_output)
        linear_15: "f32[1, 23, 512]" = torch.ops.aten.linear.default(reshape_2, p_model_model_encoder_layers_2_self_attn_out_proj_weight, p_model_model_encoder_layers_2_self_attn_out_proj_bias);  reshape_2 = p_model_model_encoder_layers_2_self_attn_out_proj_weight = p_model_model_encoder_layers_2_self_attn_out_proj_bias = None
        
         # File: /home/nlong/execu-tools/transformers/src/transformers/models/marian/modeling_marian.py:307 in forward, code: hidden_states = nn.functional.dropout(hidden_states, p=self.dropout, training=self.training)
        dropout_10: "f32[1, 23, 512]" = torch.ops.aten.dropout.default(linear_15, 0.1, False);  linear_15 = None
        
         # File: /home/nlong/execu-tools/transformers/src/transformers/models/marian/modeling_marian.py:308 in forward, code: hidden_states = residual + hidden_states
        add_9: "f32[1, 23, 512]" = torch.ops.aten.add.Tensor(layer_norm_3, dropout_10);  layer_norm_3 = dropout_10 = None
        
         # File: /home/nlong/execu-tools/transformers/src/transformers/models/marian/modeling_marian.py:309 in forward, code: hidden_states = self.self_attn_layer_norm(hidden_states)
        layer_norm_4: "f32[1, 23, 512]" = torch.ops.aten.layer_norm.default(add_9, [512], p_model_model_encoder_layers_2_self_attn_layer_norm_weight, p_model_model_encoder_layers_2_self_attn_layer_norm_bias);  add_9 = p_model_model_encoder_layers_2_self_attn_layer_norm_weight = p_model_model_encoder_layers_2_self_attn_layer_norm_bias = None
        
         # File: /home/nlong/execu-tools/transformers/src/transformers/models/marian/modeling_marian.py:312 in forward, code: hidden_states = self.activation_fn(self.fc1(hidden_states))
        linear_16: "f32[1, 23, 2048]" = torch.ops.aten.linear.default(layer_norm_4, p_model_model_encoder_layers_2_fc1_weight, p_model_model_encoder_layers_2_fc1_bias);  p_model_model_encoder_layers_2_fc1_weight = p_model_model_encoder_layers_2_fc1_bias = None
        silu_2: "f32[1, 23, 2048]" = torch.ops.aten.silu.default(linear_16);  linear_16 = None
        
         # File: /home/nlong/execu-tools/transformers/src/transformers/models/marian/modeling_marian.py:313 in forward, code: hidden_states = nn.functional.dropout(hidden_states, p=self.activation_dropout, training=self.training)
        dropout_11: "f32[1, 23, 2048]" = torch.ops.aten.dropout.default(silu_2, 0.0, False);  silu_2 = None
        
         # File: /home/nlong/execu-tools/transformers/src/transformers/models/marian/modeling_marian.py:314 in forward, code: hidden_states = self.fc2(hidden_states)
        linear_17: "f32[1, 23, 512]" = torch.ops.aten.linear.default(dropout_11, p_model_model_encoder_layers_2_fc2_weight, p_model_model_encoder_layers_2_fc2_bias);  dropout_11 = p_model_model_encoder_layers_2_fc2_weight = p_model_model_encoder_layers_2_fc2_bias = None
        
         # File: /home/nlong/execu-tools/transformers/src/transformers/models/marian/modeling_marian.py:315 in forward, code: hidden_states = nn.functional.dropout(hidden_states, p=self.dropout, training=self.training)
        dropout_12: "f32[1, 23, 512]" = torch.ops.aten.dropout.default(linear_17, 0.1, False);  linear_17 = None
        
         # File: /home/nlong/execu-tools/transformers/src/transformers/models/marian/modeling_marian.py:316 in forward, code: hidden_states = residual + hidden_states
        add_10: "f32[1, 23, 512]" = torch.ops.aten.add.Tensor(layer_norm_4, dropout_12);  layer_norm_4 = dropout_12 = None
        
         # File: /home/nlong/execu-tools/transformers/src/transformers/models/marian/modeling_marian.py:317 in forward, code: hidden_states = self.final_layer_norm(hidden_states)
        layer_norm_5: "f32[1, 23, 512]" = torch.ops.aten.layer_norm.default(add_10, [512], p_model_model_encoder_layers_2_final_layer_norm_weight, p_model_model_encoder_layers_2_final_layer_norm_bias);  add_10 = p_model_model_encoder_layers_2_final_layer_norm_weight = p_model_model_encoder_layers_2_final_layer_norm_bias = None
        
         # File: /home/nlong/execu-tools/transformers/src/transformers/models/marian/modeling_marian.py:176 in forward, code: query_states = self._shape(self.q_proj(hidden_states) * self.scaling, tgt_len, bsz)
        linear_18: "f32[1, 23, 512]" = torch.ops.aten.linear.default(layer_norm_5, p_model_model_encoder_layers_3_self_attn_q_proj_weight, p_model_model_encoder_layers_3_self_attn_q_proj_bias);  p_model_model_encoder_layers_3_self_attn_q_proj_weight = p_model_model_encoder_layers_3_self_attn_q_proj_bias = None
        mul_7: "f32[1, 23, 512]" = torch.ops.aten.mul.Tensor(linear_18, 0.125);  linear_18 = None
        
         # File: /home/nlong/execu-tools/transformers/src/transformers/models/marian/modeling_marian.py:155 in _shape, code: return tensor.view(bsz, seq_len, self.num_heads, self.head_dim).transpose(1, 2).contiguous()
        view_10: "f32[1, 23, 8, 64]" = torch.ops.aten.view.default(mul_7, [1, 23, 8, 64]);  mul_7 = None
        transpose_15: "f32[1, 8, 23, 64]" = torch.ops.aten.transpose.int(view_10, 1, 2);  view_10 = None
        contiguous_9: "f32[1, 8, 23, 64]" = torch.ops.aten.contiguous.default(transpose_15);  transpose_15 = None
        
         # File: /home/nlong/execu-tools/transformers/src/transformers/models/marian/modeling_marian.py:202 in forward, code: key_states = self._shape(self.k_proj(current_states), -1, bsz)
        linear_19: "f32[1, 23, 512]" = torch.ops.aten.linear.default(layer_norm_5, p_model_model_encoder_layers_3_self_attn_k_proj_weight, p_model_model_encoder_layers_3_self_attn_k_proj_bias);  p_model_model_encoder_layers_3_self_attn_k_proj_weight = p_model_model_encoder_layers_3_self_attn_k_proj_bias = None
        
         # File: /home/nlong/execu-tools/transformers/src/transformers/models/marian/modeling_marian.py:155 in _shape, code: return tensor.view(bsz, seq_len, self.num_heads, self.head_dim).transpose(1, 2).contiguous()
        view_11: "f32[1, 23, 8, 64]" = torch.ops.aten.view.default(linear_19, [1, -1, 8, 64]);  linear_19 = None
        transpose_16: "f32[1, 8, 23, 64]" = torch.ops.aten.transpose.int(view_11, 1, 2);  view_11 = None
        contiguous_10: "f32[1, 8, 23, 64]" = torch.ops.aten.contiguous.default(transpose_16);  transpose_16 = None
        
         # File: /home/nlong/execu-tools/transformers/src/transformers/models/marian/modeling_marian.py:203 in forward, code: value_states = self._shape(self.v_proj(current_states), -1, bsz)
        linear_20: "f32[1, 23, 512]" = torch.ops.aten.linear.default(layer_norm_5, p_model_model_encoder_layers_3_self_attn_v_proj_weight, p_model_model_encoder_layers_3_self_attn_v_proj_bias);  p_model_model_encoder_layers_3_self_attn_v_proj_weight = p_model_model_encoder_layers_3_self_attn_v_proj_bias = None
        
         # File: /home/nlong/execu-tools/transformers/src/transformers/models/marian/modeling_marian.py:155 in _shape, code: return tensor.view(bsz, seq_len, self.num_heads, self.head_dim).transpose(1, 2).contiguous()
        view_12: "f32[1, 23, 8, 64]" = torch.ops.aten.view.default(linear_20, [1, -1, 8, 64]);  linear_20 = None
        transpose_17: "f32[1, 8, 23, 64]" = torch.ops.aten.transpose.int(view_12, 1, 2);  view_12 = None
        contiguous_11: "f32[1, 8, 23, 64]" = torch.ops.aten.contiguous.default(transpose_17);  transpose_17 = None
        
         # File: /home/nlong/execu-tools/transformers/src/transformers/models/marian/modeling_marian.py:227 in forward, code: attn_weights = torch.matmul(query_states, key_states.transpose(2, 3))
        transpose_18: "f32[1, 8, 64, 23]" = torch.ops.aten.transpose.int(contiguous_10, 2, 3);  contiguous_10 = None
        matmul_6: "f32[1, 8, 23, 23]" = torch.ops.aten.matmul.default(contiguous_9, transpose_18);  contiguous_9 = transpose_18 = None
        
         # File: /home/nlong/execu-tools/transformers/src/transformers/models/marian/modeling_marian.py:230 in forward, code: causal_mask = attention_mask[:, :, :, : key_states.shape[-2]]
        slice_12: "f32[1, 1, 23, 23]" = torch.ops.aten.slice.Tensor(masked_fill, 0, 0, 9223372036854775807)
        slice_13: "f32[1, 1, 23, 23]" = torch.ops.aten.slice.Tensor(slice_12, 1, 0, 9223372036854775807);  slice_12 = None
        slice_14: "f32[1, 1, 23, 23]" = torch.ops.aten.slice.Tensor(slice_13, 2, 0, 9223372036854775807);  slice_13 = None
        
         # File: /home/nlong/execu-tools/transformers/src/transformers/models/marian/modeling_marian.py:231 in forward, code: attn_weights = attn_weights + causal_mask
        add_11: "f32[1, 8, 23, 23]" = torch.ops.aten.add.Tensor(matmul_6, slice_14);  matmul_6 = slice_14 = None
        
         # File: /home/nlong/execu-tools/transformers/src/transformers/models/marian/modeling_marian.py:233 in forward, code: attn_weights = nn.functional.softmax(attn_weights, dim=-1)
        softmax_3: "f32[1, 8, 23, 23]" = torch.ops.aten.softmax.int(add_11, -1);  add_11 = None
        
         # File: /home/nlong/execu-tools/transformers/src/transformers/models/marian/modeling_marian.py:243 in forward, code: attn_probs = nn.functional.dropout(attn_weights, p=self.dropout, training=self.training)
        dropout_13: "f32[1, 8, 23, 23]" = torch.ops.aten.dropout.default(softmax_3, 0.0, False);  softmax_3 = None
        
         # File: /home/nlong/execu-tools/transformers/src/transformers/models/marian/modeling_marian.py:244 in forward, code: attn_output = torch.matmul(attn_probs, value_states)
        matmul_7: "f32[1, 8, 23, 64]" = torch.ops.aten.matmul.default(dropout_13, contiguous_11);  dropout_13 = contiguous_11 = None
        
         # File: /home/nlong/execu-tools/transformers/src/transformers/models/marian/modeling_marian.py:252 in forward, code: attn_output = attn_output.transpose(1, 2)
        transpose_19: "f32[1, 23, 8, 64]" = torch.ops.aten.transpose.int(matmul_7, 1, 2);  matmul_7 = None
        
         # File: /home/nlong/execu-tools/transformers/src/transformers/models/marian/modeling_marian.py:255 in forward, code: attn_output = attn_output.reshape(bsz, tgt_len, self.embed_dim)
        reshape_3: "f32[1, 23, 512]" = torch.ops.aten.reshape.default(transpose_19, [1, 23, 512]);  transpose_19 = None
        
         # File: /home/nlong/execu-tools/transformers/src/transformers/models/marian/modeling_marian.py:257 in forward, code: attn_output = self.out_proj(attn_output)
        linear_21: "f32[1, 23, 512]" = torch.ops.aten.linear.default(reshape_3, p_model_model_encoder_layers_3_self_attn_out_proj_weight, p_model_model_encoder_layers_3_self_attn_out_proj_bias);  reshape_3 = p_model_model_encoder_layers_3_self_attn_out_proj_weight = p_model_model_encoder_layers_3_self_attn_out_proj_bias = None
        
         # File: /home/nlong/execu-tools/transformers/src/transformers/models/marian/modeling_marian.py:307 in forward, code: hidden_states = nn.functional.dropout(hidden_states, p=self.dropout, training=self.training)
        dropout_14: "f32[1, 23, 512]" = torch.ops.aten.dropout.default(linear_21, 0.1, False);  linear_21 = None
        
         # File: /home/nlong/execu-tools/transformers/src/transformers/models/marian/modeling_marian.py:308 in forward, code: hidden_states = residual + hidden_states
        add_12: "f32[1, 23, 512]" = torch.ops.aten.add.Tensor(layer_norm_5, dropout_14);  layer_norm_5 = dropout_14 = None
        
         # File: /home/nlong/execu-tools/transformers/src/transformers/models/marian/modeling_marian.py:309 in forward, code: hidden_states = self.self_attn_layer_norm(hidden_states)
        layer_norm_6: "f32[1, 23, 512]" = torch.ops.aten.layer_norm.default(add_12, [512], p_model_model_encoder_layers_3_self_attn_layer_norm_weight, p_model_model_encoder_layers_3_self_attn_layer_norm_bias);  add_12 = p_model_model_encoder_layers_3_self_attn_layer_norm_weight = p_model_model_encoder_layers_3_self_attn_layer_norm_bias = None
        
         # File: /home/nlong/execu-tools/transformers/src/transformers/models/marian/modeling_marian.py:312 in forward, code: hidden_states = self.activation_fn(self.fc1(hidden_states))
        linear_22: "f32[1, 23, 2048]" = torch.ops.aten.linear.default(layer_norm_6, p_model_model_encoder_layers_3_fc1_weight, p_model_model_encoder_layers_3_fc1_bias);  p_model_model_encoder_layers_3_fc1_weight = p_model_model_encoder_layers_3_fc1_bias = None
        silu_3: "f32[1, 23, 2048]" = torch.ops.aten.silu.default(linear_22);  linear_22 = None
        
         # File: /home/nlong/execu-tools/transformers/src/transformers/models/marian/modeling_marian.py:313 in forward, code: hidden_states = nn.functional.dropout(hidden_states, p=self.activation_dropout, training=self.training)
        dropout_15: "f32[1, 23, 2048]" = torch.ops.aten.dropout.default(silu_3, 0.0, False);  silu_3 = None
        
         # File: /home/nlong/execu-tools/transformers/src/transformers/models/marian/modeling_marian.py:314 in forward, code: hidden_states = self.fc2(hidden_states)
        linear_23: "f32[1, 23, 512]" = torch.ops.aten.linear.default(dropout_15, p_model_model_encoder_layers_3_fc2_weight, p_model_model_encoder_layers_3_fc2_bias);  dropout_15 = p_model_model_encoder_layers_3_fc2_weight = p_model_model_encoder_layers_3_fc2_bias = None
        
         # File: /home/nlong/execu-tools/transformers/src/transformers/models/marian/modeling_marian.py:315 in forward, code: hidden_states = nn.functional.dropout(hidden_states, p=self.dropout, training=self.training)
        dropout_16: "f32[1, 23, 512]" = torch.ops.aten.dropout.default(linear_23, 0.1, False);  linear_23 = None
        
         # File: /home/nlong/execu-tools/transformers/src/transformers/models/marian/modeling_marian.py:316 in forward, code: hidden_states = residual + hidden_states
        add_13: "f32[1, 23, 512]" = torch.ops.aten.add.Tensor(layer_norm_6, dropout_16);  layer_norm_6 = dropout_16 = None
        
         # File: /home/nlong/execu-tools/transformers/src/transformers/models/marian/modeling_marian.py:317 in forward, code: hidden_states = self.final_layer_norm(hidden_states)
        layer_norm_7: "f32[1, 23, 512]" = torch.ops.aten.layer_norm.default(add_13, [512], p_model_model_encoder_layers_3_final_layer_norm_weight, p_model_model_encoder_layers_3_final_layer_norm_bias);  add_13 = p_model_model_encoder_layers_3_final_layer_norm_weight = p_model_model_encoder_layers_3_final_layer_norm_bias = None
        
         # File: /home/nlong/execu-tools/transformers/src/transformers/models/marian/modeling_marian.py:176 in forward, code: query_states = self._shape(self.q_proj(hidden_states) * self.scaling, tgt_len, bsz)
        linear_24: "f32[1, 23, 512]" = torch.ops.aten.linear.default(layer_norm_7, p_model_model_encoder_layers_4_self_attn_q_proj_weight, p_model_model_encoder_layers_4_self_attn_q_proj_bias);  p_model_model_encoder_layers_4_self_attn_q_proj_weight = p_model_model_encoder_layers_4_self_attn_q_proj_bias = None
        mul_8: "f32[1, 23, 512]" = torch.ops.aten.mul.Tensor(linear_24, 0.125);  linear_24 = None
        
         # File: /home/nlong/execu-tools/transformers/src/transformers/models/marian/modeling_marian.py:155 in _shape, code: return tensor.view(bsz, seq_len, self.num_heads, self.head_dim).transpose(1, 2).contiguous()
        view_13: "f32[1, 23, 8, 64]" = torch.ops.aten.view.default(mul_8, [1, 23, 8, 64]);  mul_8 = None
        transpose_20: "f32[1, 8, 23, 64]" = torch.ops.aten.transpose.int(view_13, 1, 2);  view_13 = None
        contiguous_12: "f32[1, 8, 23, 64]" = torch.ops.aten.contiguous.default(transpose_20);  transpose_20 = None
        
         # File: /home/nlong/execu-tools/transformers/src/transformers/models/marian/modeling_marian.py:202 in forward, code: key_states = self._shape(self.k_proj(current_states), -1, bsz)
        linear_25: "f32[1, 23, 512]" = torch.ops.aten.linear.default(layer_norm_7, p_model_model_encoder_layers_4_self_attn_k_proj_weight, p_model_model_encoder_layers_4_self_attn_k_proj_bias);  p_model_model_encoder_layers_4_self_attn_k_proj_weight = p_model_model_encoder_layers_4_self_attn_k_proj_bias = None
        
         # File: /home/nlong/execu-tools/transformers/src/transformers/models/marian/modeling_marian.py:155 in _shape, code: return tensor.view(bsz, seq_len, self.num_heads, self.head_dim).transpose(1, 2).contiguous()
        view_14: "f32[1, 23, 8, 64]" = torch.ops.aten.view.default(linear_25, [1, -1, 8, 64]);  linear_25 = None
        transpose_21: "f32[1, 8, 23, 64]" = torch.ops.aten.transpose.int(view_14, 1, 2);  view_14 = None
        contiguous_13: "f32[1, 8, 23, 64]" = torch.ops.aten.contiguous.default(transpose_21);  transpose_21 = None
        
         # File: /home/nlong/execu-tools/transformers/src/transformers/models/marian/modeling_marian.py:203 in forward, code: value_states = self._shape(self.v_proj(current_states), -1, bsz)
        linear_26: "f32[1, 23, 512]" = torch.ops.aten.linear.default(layer_norm_7, p_model_model_encoder_layers_4_self_attn_v_proj_weight, p_model_model_encoder_layers_4_self_attn_v_proj_bias);  p_model_model_encoder_layers_4_self_attn_v_proj_weight = p_model_model_encoder_layers_4_self_attn_v_proj_bias = None
        
         # File: /home/nlong/execu-tools/transformers/src/transformers/models/marian/modeling_marian.py:155 in _shape, code: return tensor.view(bsz, seq_len, self.num_heads, self.head_dim).transpose(1, 2).contiguous()
        view_15: "f32[1, 23, 8, 64]" = torch.ops.aten.view.default(linear_26, [1, -1, 8, 64]);  linear_26 = None
        transpose_22: "f32[1, 8, 23, 64]" = torch.ops.aten.transpose.int(view_15, 1, 2);  view_15 = None
        contiguous_14: "f32[1, 8, 23, 64]" = torch.ops.aten.contiguous.default(transpose_22);  transpose_22 = None
        
         # File: /home/nlong/execu-tools/transformers/src/transformers/models/marian/modeling_marian.py:227 in forward, code: attn_weights = torch.matmul(query_states, key_states.transpose(2, 3))
        transpose_23: "f32[1, 8, 64, 23]" = torch.ops.aten.transpose.int(contiguous_13, 2, 3);  contiguous_13 = None
        matmul_8: "f32[1, 8, 23, 23]" = torch.ops.aten.matmul.default(contiguous_12, transpose_23);  contiguous_12 = transpose_23 = None
        
         # File: /home/nlong/execu-tools/transformers/src/transformers/models/marian/modeling_marian.py:230 in forward, code: causal_mask = attention_mask[:, :, :, : key_states.shape[-2]]
        slice_15: "f32[1, 1, 23, 23]" = torch.ops.aten.slice.Tensor(masked_fill, 0, 0, 9223372036854775807)
        slice_16: "f32[1, 1, 23, 23]" = torch.ops.aten.slice.Tensor(slice_15, 1, 0, 9223372036854775807);  slice_15 = None
        slice_17: "f32[1, 1, 23, 23]" = torch.ops.aten.slice.Tensor(slice_16, 2, 0, 9223372036854775807);  slice_16 = None
        
         # File: /home/nlong/execu-tools/transformers/src/transformers/models/marian/modeling_marian.py:231 in forward, code: attn_weights = attn_weights + causal_mask
        add_14: "f32[1, 8, 23, 23]" = torch.ops.aten.add.Tensor(matmul_8, slice_17);  matmul_8 = slice_17 = None
        
         # File: /home/nlong/execu-tools/transformers/src/transformers/models/marian/modeling_marian.py:233 in forward, code: attn_weights = nn.functional.softmax(attn_weights, dim=-1)
        softmax_4: "f32[1, 8, 23, 23]" = torch.ops.aten.softmax.int(add_14, -1);  add_14 = None
        
         # File: /home/nlong/execu-tools/transformers/src/transformers/models/marian/modeling_marian.py:243 in forward, code: attn_probs = nn.functional.dropout(attn_weights, p=self.dropout, training=self.training)
        dropout_17: "f32[1, 8, 23, 23]" = torch.ops.aten.dropout.default(softmax_4, 0.0, False);  softmax_4 = None
        
         # File: /home/nlong/execu-tools/transformers/src/transformers/models/marian/modeling_marian.py:244 in forward, code: attn_output = torch.matmul(attn_probs, value_states)
        matmul_9: "f32[1, 8, 23, 64]" = torch.ops.aten.matmul.default(dropout_17, contiguous_14);  dropout_17 = contiguous_14 = None
        
         # File: /home/nlong/execu-tools/transformers/src/transformers/models/marian/modeling_marian.py:252 in forward, code: attn_output = attn_output.transpose(1, 2)
        transpose_24: "f32[1, 23, 8, 64]" = torch.ops.aten.transpose.int(matmul_9, 1, 2);  matmul_9 = None
        
         # File: /home/nlong/execu-tools/transformers/src/transformers/models/marian/modeling_marian.py:255 in forward, code: attn_output = attn_output.reshape(bsz, tgt_len, self.embed_dim)
        reshape_4: "f32[1, 23, 512]" = torch.ops.aten.reshape.default(transpose_24, [1, 23, 512]);  transpose_24 = None
        
         # File: /home/nlong/execu-tools/transformers/src/transformers/models/marian/modeling_marian.py:257 in forward, code: attn_output = self.out_proj(attn_output)
        linear_27: "f32[1, 23, 512]" = torch.ops.aten.linear.default(reshape_4, p_model_model_encoder_layers_4_self_attn_out_proj_weight, p_model_model_encoder_layers_4_self_attn_out_proj_bias);  reshape_4 = p_model_model_encoder_layers_4_self_attn_out_proj_weight = p_model_model_encoder_layers_4_self_attn_out_proj_bias = None
        
         # File: /home/nlong/execu-tools/transformers/src/transformers/models/marian/modeling_marian.py:307 in forward, code: hidden_states = nn.functional.dropout(hidden_states, p=self.dropout, training=self.training)
        dropout_18: "f32[1, 23, 512]" = torch.ops.aten.dropout.default(linear_27, 0.1, False);  linear_27 = None
        
         # File: /home/nlong/execu-tools/transformers/src/transformers/models/marian/modeling_marian.py:308 in forward, code: hidden_states = residual + hidden_states
        add_15: "f32[1, 23, 512]" = torch.ops.aten.add.Tensor(layer_norm_7, dropout_18);  layer_norm_7 = dropout_18 = None
        
         # File: /home/nlong/execu-tools/transformers/src/transformers/models/marian/modeling_marian.py:309 in forward, code: hidden_states = self.self_attn_layer_norm(hidden_states)
        layer_norm_8: "f32[1, 23, 512]" = torch.ops.aten.layer_norm.default(add_15, [512], p_model_model_encoder_layers_4_self_attn_layer_norm_weight, p_model_model_encoder_layers_4_self_attn_layer_norm_bias);  add_15 = p_model_model_encoder_layers_4_self_attn_layer_norm_weight = p_model_model_encoder_layers_4_self_attn_layer_norm_bias = None
        
         # File: /home/nlong/execu-tools/transformers/src/transformers/models/marian/modeling_marian.py:312 in forward, code: hidden_states = self.activation_fn(self.fc1(hidden_states))
        linear_28: "f32[1, 23, 2048]" = torch.ops.aten.linear.default(layer_norm_8, p_model_model_encoder_layers_4_fc1_weight, p_model_model_encoder_layers_4_fc1_bias);  p_model_model_encoder_layers_4_fc1_weight = p_model_model_encoder_layers_4_fc1_bias = None
        silu_4: "f32[1, 23, 2048]" = torch.ops.aten.silu.default(linear_28);  linear_28 = None
        
         # File: /home/nlong/execu-tools/transformers/src/transformers/models/marian/modeling_marian.py:313 in forward, code: hidden_states = nn.functional.dropout(hidden_states, p=self.activation_dropout, training=self.training)
        dropout_19: "f32[1, 23, 2048]" = torch.ops.aten.dropout.default(silu_4, 0.0, False);  silu_4 = None
        
         # File: /home/nlong/execu-tools/transformers/src/transformers/models/marian/modeling_marian.py:314 in forward, code: hidden_states = self.fc2(hidden_states)
        linear_29: "f32[1, 23, 512]" = torch.ops.aten.linear.default(dropout_19, p_model_model_encoder_layers_4_fc2_weight, p_model_model_encoder_layers_4_fc2_bias);  dropout_19 = p_model_model_encoder_layers_4_fc2_weight = p_model_model_encoder_layers_4_fc2_bias = None
        
         # File: /home/nlong/execu-tools/transformers/src/transformers/models/marian/modeling_marian.py:315 in forward, code: hidden_states = nn.functional.dropout(hidden_states, p=self.dropout, training=self.training)
        dropout_20: "f32[1, 23, 512]" = torch.ops.aten.dropout.default(linear_29, 0.1, False);  linear_29 = None
        
         # File: /home/nlong/execu-tools/transformers/src/transformers/models/marian/modeling_marian.py:316 in forward, code: hidden_states = residual + hidden_states
        add_16: "f32[1, 23, 512]" = torch.ops.aten.add.Tensor(layer_norm_8, dropout_20);  layer_norm_8 = dropout_20 = None
        
         # File: /home/nlong/execu-tools/transformers/src/transformers/models/marian/modeling_marian.py:317 in forward, code: hidden_states = self.final_layer_norm(hidden_states)
        layer_norm_9: "f32[1, 23, 512]" = torch.ops.aten.layer_norm.default(add_16, [512], p_model_model_encoder_layers_4_final_layer_norm_weight, p_model_model_encoder_layers_4_final_layer_norm_bias);  add_16 = p_model_model_encoder_layers_4_final_layer_norm_weight = p_model_model_encoder_layers_4_final_layer_norm_bias = None
        
         # File: /home/nlong/execu-tools/transformers/src/transformers/models/marian/modeling_marian.py:176 in forward, code: query_states = self._shape(self.q_proj(hidden_states) * self.scaling, tgt_len, bsz)
        linear_30: "f32[1, 23, 512]" = torch.ops.aten.linear.default(layer_norm_9, p_model_model_encoder_layers_5_self_attn_q_proj_weight, p_model_model_encoder_layers_5_self_attn_q_proj_bias);  p_model_model_encoder_layers_5_self_attn_q_proj_weight = p_model_model_encoder_layers_5_self_attn_q_proj_bias = None
        mul_9: "f32[1, 23, 512]" = torch.ops.aten.mul.Tensor(linear_30, 0.125);  linear_30 = None
        
         # File: /home/nlong/execu-tools/transformers/src/transformers/models/marian/modeling_marian.py:155 in _shape, code: return tensor.view(bsz, seq_len, self.num_heads, self.head_dim).transpose(1, 2).contiguous()
        view_16: "f32[1, 23, 8, 64]" = torch.ops.aten.view.default(mul_9, [1, 23, 8, 64]);  mul_9 = None
        transpose_25: "f32[1, 8, 23, 64]" = torch.ops.aten.transpose.int(view_16, 1, 2);  view_16 = None
        contiguous_15: "f32[1, 8, 23, 64]" = torch.ops.aten.contiguous.default(transpose_25);  transpose_25 = None
        
         # File: /home/nlong/execu-tools/transformers/src/transformers/models/marian/modeling_marian.py:202 in forward, code: key_states = self._shape(self.k_proj(current_states), -1, bsz)
        linear_31: "f32[1, 23, 512]" = torch.ops.aten.linear.default(layer_norm_9, p_model_model_encoder_layers_5_self_attn_k_proj_weight, p_model_model_encoder_layers_5_self_attn_k_proj_bias);  p_model_model_encoder_layers_5_self_attn_k_proj_weight = p_model_model_encoder_layers_5_self_attn_k_proj_bias = None
        
         # File: /home/nlong/execu-tools/transformers/src/transformers/models/marian/modeling_marian.py:155 in _shape, code: return tensor.view(bsz, seq_len, self.num_heads, self.head_dim).transpose(1, 2).contiguous()
        view_17: "f32[1, 23, 8, 64]" = torch.ops.aten.view.default(linear_31, [1, -1, 8, 64]);  linear_31 = None
        transpose_26: "f32[1, 8, 23, 64]" = torch.ops.aten.transpose.int(view_17, 1, 2);  view_17 = None
        contiguous_16: "f32[1, 8, 23, 64]" = torch.ops.aten.contiguous.default(transpose_26);  transpose_26 = None
        
         # File: /home/nlong/execu-tools/transformers/src/transformers/models/marian/modeling_marian.py:203 in forward, code: value_states = self._shape(self.v_proj(current_states), -1, bsz)
        linear_32: "f32[1, 23, 512]" = torch.ops.aten.linear.default(layer_norm_9, p_model_model_encoder_layers_5_self_attn_v_proj_weight, p_model_model_encoder_layers_5_self_attn_v_proj_bias);  p_model_model_encoder_layers_5_self_attn_v_proj_weight = p_model_model_encoder_layers_5_self_attn_v_proj_bias = None
        
         # File: /home/nlong/execu-tools/transformers/src/transformers/models/marian/modeling_marian.py:155 in _shape, code: return tensor.view(bsz, seq_len, self.num_heads, self.head_dim).transpose(1, 2).contiguous()
        view_18: "f32[1, 23, 8, 64]" = torch.ops.aten.view.default(linear_32, [1, -1, 8, 64]);  linear_32 = None
        transpose_27: "f32[1, 8, 23, 64]" = torch.ops.aten.transpose.int(view_18, 1, 2);  view_18 = None
        contiguous_17: "f32[1, 8, 23, 64]" = torch.ops.aten.contiguous.default(transpose_27);  transpose_27 = None
        
         # File: /home/nlong/execu-tools/transformers/src/transformers/models/marian/modeling_marian.py:227 in forward, code: attn_weights = torch.matmul(query_states, key_states.transpose(2, 3))
        transpose_28: "f32[1, 8, 64, 23]" = torch.ops.aten.transpose.int(contiguous_16, 2, 3);  contiguous_16 = None
        matmul_10: "f32[1, 8, 23, 23]" = torch.ops.aten.matmul.default(contiguous_15, transpose_28);  contiguous_15 = transpose_28 = None
        
         # File: /home/nlong/execu-tools/transformers/src/transformers/models/marian/modeling_marian.py:230 in forward, code: causal_mask = attention_mask[:, :, :, : key_states.shape[-2]]
        slice_18: "f32[1, 1, 23, 23]" = torch.ops.aten.slice.Tensor(masked_fill, 0, 0, 9223372036854775807);  masked_fill = None
        slice_19: "f32[1, 1, 23, 23]" = torch.ops.aten.slice.Tensor(slice_18, 1, 0, 9223372036854775807);  slice_18 = None
        slice_20: "f32[1, 1, 23, 23]" = torch.ops.aten.slice.Tensor(slice_19, 2, 0, 9223372036854775807);  slice_19 = None
        
         # File: /home/nlong/execu-tools/transformers/src/transformers/models/marian/modeling_marian.py:231 in forward, code: attn_weights = attn_weights + causal_mask
        add_17: "f32[1, 8, 23, 23]" = torch.ops.aten.add.Tensor(matmul_10, slice_20);  matmul_10 = slice_20 = None
        
         # File: /home/nlong/execu-tools/transformers/src/transformers/models/marian/modeling_marian.py:233 in forward, code: attn_weights = nn.functional.softmax(attn_weights, dim=-1)
        softmax_5: "f32[1, 8, 23, 23]" = torch.ops.aten.softmax.int(add_17, -1);  add_17 = None
        
         # File: /home/nlong/execu-tools/transformers/src/transformers/models/marian/modeling_marian.py:243 in forward, code: attn_probs = nn.functional.dropout(attn_weights, p=self.dropout, training=self.training)
        dropout_21: "f32[1, 8, 23, 23]" = torch.ops.aten.dropout.default(softmax_5, 0.0, False);  softmax_5 = None
        
         # File: /home/nlong/execu-tools/transformers/src/transformers/models/marian/modeling_marian.py:244 in forward, code: attn_output = torch.matmul(attn_probs, value_states)
        matmul_11: "f32[1, 8, 23, 64]" = torch.ops.aten.matmul.default(dropout_21, contiguous_17);  dropout_21 = contiguous_17 = None
        
         # File: /home/nlong/execu-tools/transformers/src/transformers/models/marian/modeling_marian.py:252 in forward, code: attn_output = attn_output.transpose(1, 2)
        transpose_29: "f32[1, 23, 8, 64]" = torch.ops.aten.transpose.int(matmul_11, 1, 2);  matmul_11 = None
        
         # File: /home/nlong/execu-tools/transformers/src/transformers/models/marian/modeling_marian.py:255 in forward, code: attn_output = attn_output.reshape(bsz, tgt_len, self.embed_dim)
        reshape_5: "f32[1, 23, 512]" = torch.ops.aten.reshape.default(transpose_29, [1, 23, 512]);  transpose_29 = None
        
         # File: /home/nlong/execu-tools/transformers/src/transformers/models/marian/modeling_marian.py:257 in forward, code: attn_output = self.out_proj(attn_output)
        linear_33: "f32[1, 23, 512]" = torch.ops.aten.linear.default(reshape_5, p_model_model_encoder_layers_5_self_attn_out_proj_weight, p_model_model_encoder_layers_5_self_attn_out_proj_bias);  reshape_5 = p_model_model_encoder_layers_5_self_attn_out_proj_weight = p_model_model_encoder_layers_5_self_attn_out_proj_bias = None
        
         # File: /home/nlong/execu-tools/transformers/src/transformers/models/marian/modeling_marian.py:307 in forward, code: hidden_states = nn.functional.dropout(hidden_states, p=self.dropout, training=self.training)
        dropout_22: "f32[1, 23, 512]" = torch.ops.aten.dropout.default(linear_33, 0.1, False);  linear_33 = None
        
         # File: /home/nlong/execu-tools/transformers/src/transformers/models/marian/modeling_marian.py:308 in forward, code: hidden_states = residual + hidden_states
        add_18: "f32[1, 23, 512]" = torch.ops.aten.add.Tensor(layer_norm_9, dropout_22);  layer_norm_9 = dropout_22 = None
        
         # File: /home/nlong/execu-tools/transformers/src/transformers/models/marian/modeling_marian.py:309 in forward, code: hidden_states = self.self_attn_layer_norm(hidden_states)
        layer_norm_10: "f32[1, 23, 512]" = torch.ops.aten.layer_norm.default(add_18, [512], p_model_model_encoder_layers_5_self_attn_layer_norm_weight, p_model_model_encoder_layers_5_self_attn_layer_norm_bias);  add_18 = p_model_model_encoder_layers_5_self_attn_layer_norm_weight = p_model_model_encoder_layers_5_self_attn_layer_norm_bias = None
        
         # File: /home/nlong/execu-tools/transformers/src/transformers/models/marian/modeling_marian.py:312 in forward, code: hidden_states = self.activation_fn(self.fc1(hidden_states))
        linear_34: "f32[1, 23, 2048]" = torch.ops.aten.linear.default(layer_norm_10, p_model_model_encoder_layers_5_fc1_weight, p_model_model_encoder_layers_5_fc1_bias);  p_model_model_encoder_layers_5_fc1_weight = p_model_model_encoder_layers_5_fc1_bias = None
        silu_5: "f32[1, 23, 2048]" = torch.ops.aten.silu.default(linear_34);  linear_34 = None
        
         # File: /home/nlong/execu-tools/transformers/src/transformers/models/marian/modeling_marian.py:313 in forward, code: hidden_states = nn.functional.dropout(hidden_states, p=self.activation_dropout, training=self.training)
        dropout_23: "f32[1, 23, 2048]" = torch.ops.aten.dropout.default(silu_5, 0.0, False);  silu_5 = None
        
         # File: /home/nlong/execu-tools/transformers/src/transformers/models/marian/modeling_marian.py:314 in forward, code: hidden_states = self.fc2(hidden_states)
        linear_35: "f32[1, 23, 512]" = torch.ops.aten.linear.default(dropout_23, p_model_model_encoder_layers_5_fc2_weight, p_model_model_encoder_layers_5_fc2_bias);  dropout_23 = p_model_model_encoder_layers_5_fc2_weight = p_model_model_encoder_layers_5_fc2_bias = None
        
         # File: /home/nlong/execu-tools/transformers/src/transformers/models/marian/modeling_marian.py:315 in forward, code: hidden_states = nn.functional.dropout(hidden_states, p=self.dropout, training=self.training)
        dropout_24: "f32[1, 23, 512]" = torch.ops.aten.dropout.default(linear_35, 0.1, False);  linear_35 = None
        
         # File: /home/nlong/execu-tools/transformers/src/transformers/models/marian/modeling_marian.py:316 in forward, code: hidden_states = residual + hidden_states
        add_19: "f32[1, 23, 512]" = torch.ops.aten.add.Tensor(layer_norm_10, dropout_24);  layer_norm_10 = dropout_24 = None
        
         # File: /home/nlong/execu-tools/transformers/src/transformers/models/marian/modeling_marian.py:317 in forward, code: hidden_states = self.final_layer_norm(hidden_states)
        layer_norm_11: "f32[1, 23, 512]" = torch.ops.aten.layer_norm.default(add_19, [512], p_model_model_encoder_layers_5_final_layer_norm_weight, p_model_model_encoder_layers_5_final_layer_norm_bias);  add_19 = p_model_model_encoder_layers_5_final_layer_norm_weight = p_model_model_encoder_layers_5_final_layer_norm_bias = None
        
         # File: /home/nlong/execu-tools/transformers/src/transformers/generation/utils.py:685 in _prepare_decoder_input_ids_for_generation, code: torch.ones((batch_size, 1), dtype=torch.long, device=device) * decoder_start_token_id
        ones_1: "i64[1, 1]" = torch.ops.aten.ones.default([1, 1], dtype = torch.int64, device = device(type='cpu'), pin_memory = False)
        mul_10: "i64[1, 1]" = torch.ops.aten.mul.Tensor(ones_1, detach__3);  ones_1 = detach__3 = None
        
         # File: /home/nlong/execu-tools/transformers/src/transformers/generation/logits_process.py:1607 in __init__, code: eos_token_id = torch.tensor(eos_token_id, device=device)
        lift_fresh_copy_4: "i64[1]" = torch.ops.aten.lift_fresh_copy.default(c_lifted_tensor_4);  c_lifted_tensor_4 = None
        detach__4: "i64[1]" = torch.ops.aten.detach_.default(lift_fresh_copy_4);  lift_fresh_copy_4 = None
        
         # File: /home/nlong/execu-tools/transformers/src/transformers/generation/utils.py:3231 in _sample, code: unfinished_sequences = torch.ones(batch_size, dtype=torch.long, device=input_ids.device)
        ones_2: "i64[1]" = torch.ops.aten.ones.default([1], dtype = torch.int64, device = device(type='cpu'), pin_memory = False)
        
         # File: /home/nlong/execu-tools/transformers/src/transformers/generation/utils.py:1571 in _get_initial_cache_position, code: cache_position = torch.ones_like(input_ids[0, :], dtype=torch.int64).cumsum(0) - 1
        select: "i64[1]" = torch.ops.aten.select.int(mul_10, 0, 0)
        slice_21: "i64[1]" = torch.ops.aten.slice.Tensor(select, 0, 0, 9223372036854775807);  select = None
        ones_like: "i64[1]" = torch.ops.aten.ones_like.default(slice_21, dtype = torch.int64, pin_memory = False);  slice_21 = None
        cumsum: "i64[1]" = torch.ops.aten.cumsum.default(ones_like, 0);  ones_like = None
        sub: "i64[1]" = torch.ops.aten.sub.Tensor(cumsum, 1);  cumsum = None
        
         # File: /home/nlong/execu-tools/transformers/src/transformers/cache_utils.py:1225 in get_seq_length, code: return (self.key_cache[layer_idx][0, 0].any(dim=-1)).sum()
        select_1: "f32[8, 20, 64]" = torch.ops.aten.select.int(b___cache_self_attention_cache_key_cache_0, 0, 0)
        select_2: "f32[20, 64]" = torch.ops.aten.select.int(select_1, 0, 0);  select_1 = None
        any_3: "b8[20]" = torch.ops.aten.any.dim(select_2, -1);  select_2 = None
        sum_1: "i64[]" = torch.ops.aten.sum.default(any_3);  any_3 = sum_1 = None
        
         # File: /home/nlong/execu-tools/transformers/src/transformers/cache_utils.py:1225 in get_seq_length, code: return (self.key_cache[layer_idx][0, 0].any(dim=-1)).sum()
        select_3: "f32[8, 20, 64]" = torch.ops.aten.select.int(b___cache_self_attention_cache_key_cache_0, 0, 0)
        select_4: "f32[20, 64]" = torch.ops.aten.select.int(select_3, 0, 0);  select_3 = None
        any_4: "b8[20]" = torch.ops.aten.any.dim(select_4, -1);  select_4 = None
        sum_2: "i64[]" = torch.ops.aten.sum.default(any_4);  any_4 = sum_2 = None
        
         # File: /home/nlong/execu-tools/transformers/src/transformers/generation/utils.py:390 in prepare_inputs_for_generation, code: input_ids = input_ids[:, -cache_position.shape[0] :]
        slice_22: "i64[1, 1]" = torch.ops.aten.slice.Tensor(mul_10, 0, 0, 9223372036854775807)
        slice_23: "i64[1, 1]" = torch.ops.aten.slice.Tensor(slice_22, 1, -1, 9223372036854775807);  slice_22 = None
        
         # File: /home/nlong/execu-tools/transformers/src/transformers/generation/utils.py:406 in prepare_inputs_for_generation, code: model_inputs[input_ids_key] = input_ids.clone(memory_format=torch.contiguous_format)
        clone: "i64[1, 1]" = torch.ops.aten.clone.default(slice_23, memory_format = torch.contiguous_format);  slice_23 = None
        
         # File: /home/nlong/execu-tools/transformers/src/transformers/models/marian/modeling_marian.py:936 in forward, code: input_ids = input_ids.view(-1, input_shape[-1])
        view_19: "i64[1, 1]" = torch.ops.aten.view.default(clone, [-1, 1]);  clone = None
        
         # File: /home/nlong/execu-tools/transformers/src/transformers/models/marian/modeling_marian.py:943 in forward, code: inputs_embeds = self.embed_tokens(input_ids) * self.embed_scale
        embedding_2: "f32[1, 1, 512]" = torch.ops.aten.embedding.default(p_model_lm_head_weight, view_19, 59513);  view_19 = None
        mul_11: "f32[1, 1, 512]" = torch.ops.aten.mul.Tensor(embedding_2, 22.627416997969522);  embedding_2 = None
        
         # File: /home/nlong/execu-tools/transformers/src/transformers/models/marian/modeling_marian.py:972 in forward, code: position_ids = cache_position.unsqueeze(0)
        unsqueeze_3: "i64[1, 1]" = torch.ops.aten.unsqueeze.default(sub, 0)
        
         # File: /home/nlong/execu-tools/transformers/src/transformers/modeling_attn_mask_utils.py:188 in _expand_mask, code: expanded_mask = mask[:, None, None, :].expand(bsz, 1, tgt_len, src_len).to(dtype)
        slice_24: "i64[1, 23]" = torch.ops.aten.slice.Tensor(add, 0, 0, 9223372036854775807)
        unsqueeze_4: "i64[1, 1, 23]" = torch.ops.aten.unsqueeze.default(slice_24, 1);  slice_24 = None
        unsqueeze_5: "i64[1, 1, 1, 23]" = torch.ops.aten.unsqueeze.default(unsqueeze_4, 2);  unsqueeze_4 = None
        slice_25: "i64[1, 1, 1, 23]" = torch.ops.aten.slice.Tensor(unsqueeze_5, 3, 0, 9223372036854775807);  unsqueeze_5 = None
        expand_1: "i64[1, 1, 1, 23]" = torch.ops.aten.expand.default(slice_25, [1, 1, 1, 23]);  slice_25 = None
        to_3: "f32[1, 1, 1, 23]" = torch.ops.aten.to.dtype(expand_1, torch.float32);  expand_1 = None
        
         # File: /home/nlong/execu-tools/transformers/src/transformers/modeling_attn_mask_utils.py:190 in _expand_mask, code: inverted_mask = 1.0 - expanded_mask
        rsub_1: "f32[1, 1, 1, 23]" = torch.ops.aten.rsub.Scalar(to_3, 1.0);  to_3 = None
        
         # File: /home/nlong/execu-tools/transformers/src/transformers/modeling_attn_mask_utils.py:192 in _expand_mask, code: return inverted_mask.masked_fill(inverted_mask.to(torch.bool), torch.finfo(dtype).min)
        to_4: "b8[1, 1, 1, 23]" = torch.ops.aten.to.dtype(rsub_1, torch.bool)
        masked_fill_1: "f32[1, 1, 1, 23]" = torch.ops.aten.masked_fill.Scalar(rsub_1, to_4, -3.4028234663852886e+38);  rsub_1 = to_4 = None
        
         # File: /home/nlong/execu-tools/transformers/src/transformers/models/marian/modeling_marian.py:107 in forward, code: return super().forward(positions)
        embedding_3: "f32[1, 1, 512]" = torch.ops.aten.embedding.default(p_model_model_decoder_embed_positions_weight, unsqueeze_3);  unsqueeze_3 = None
        
         # File: /home/nlong/execu-tools/transformers/src/transformers/models/marian/modeling_marian.py:986 in forward, code: hidden_states = inputs_embeds + positions.to(inputs_embeds.device)
        to_5: "f32[1, 1, 512]" = torch.ops.aten.to.dtype_layout(embedding_3, dtype = torch.float32, layout = torch.strided, device = device(type='cpu'));  embedding_3 = None
        add_20: "f32[1, 1, 512]" = torch.ops.aten.add.Tensor(mul_11, to_5);  mul_11 = to_5 = None
        
         # File: /home/nlong/execu-tools/transformers/src/transformers/models/marian/modeling_marian.py:987 in forward, code: hidden_states = nn.functional.dropout(hidden_states, p=self.dropout, training=self.training)
        dropout_25: "f32[1, 1, 512]" = torch.ops.aten.dropout.default(add_20, 0.1, False);  add_20 = None
        
         # File: /home/nlong/execu-tools/transformers/src/transformers/cache_utils.py:1225 in get_seq_length, code: return (self.key_cache[layer_idx][0, 0].any(dim=-1)).sum()
        select_5: "f32[8, 20, 64]" = torch.ops.aten.select.int(b___cache_self_attention_cache_key_cache_0, 0, 0)
        select_6: "f32[20, 64]" = torch.ops.aten.select.int(select_5, 0, 0);  select_5 = None
        any_5: "b8[20]" = torch.ops.aten.any.dim(select_6, -1);  select_6 = None
        sum_3: "i64[]" = torch.ops.aten.sum.default(any_5);  any_5 = sum_3 = None
        
         # File: /home/nlong/execu-tools/transformers/src/transformers/models/marian/modeling_marian.py:1191 in _prepare_4d_causal_attention_mask_with_cache_position, code: causal_mask = torch.full(
        full: "f32[1, 20]" = torch.ops.aten.full.default([1, 20], -3.4028234663852886e+38, dtype = torch.float32, device = device(type='cpu'), pin_memory = False)
        
         # File: /home/nlong/execu-tools/transformers/src/transformers/models/marian/modeling_marian.py:1196 in _prepare_4d_causal_attention_mask_with_cache_position, code: causal_mask *= torch.arange(target_length, device=device) > cache_position.reshape(-1, 1)
        arange_1: "i64[20]" = torch.ops.aten.arange.default(20, device = device(type='cpu'), pin_memory = False)
        reshape_6: "i64[1, 1]" = torch.ops.aten.reshape.default(sub, [-1, 1])
        gt: "b8[1, 20]" = torch.ops.aten.gt.Tensor(arange_1, reshape_6);  arange_1 = reshape_6 = None
        mul_: "f32[1, 20]" = torch.ops.aten.mul_.Tensor(full, gt);  full = gt = None
        
         # File: /home/nlong/execu-tools/transformers/src/transformers/models/marian/modeling_marian.py:1197 in _prepare_4d_causal_attention_mask_with_cache_position, code: causal_mask = causal_mask[None, None, :, :].expand(batch_size, 1, -1, -1)
        unsqueeze_6: "f32[1, 1, 20]" = torch.ops.aten.unsqueeze.default(mul_, 0);  mul_ = None
        unsqueeze_7: "f32[1, 1, 1, 20]" = torch.ops.aten.unsqueeze.default(unsqueeze_6, 1);  unsqueeze_6 = None
        slice_26: "f32[1, 1, 1, 20]" = torch.ops.aten.slice.Tensor(unsqueeze_7, 2, 0, 9223372036854775807);  unsqueeze_7 = None
        slice_27: "f32[1, 1, 1, 20]" = torch.ops.aten.slice.Tensor(slice_26, 3, 0, 9223372036854775807);  slice_26 = None
        expand_2: "f32[1, 1, 1, 20]" = torch.ops.aten.expand.default(slice_27, [1, 1, -1, -1]);  slice_27 = None
        
         # File: /home/nlong/execu-tools/transformers/src/transformers/models/marian/modeling_marian.py:176 in forward, code: query_states = self._shape(self.q_proj(hidden_states) * self.scaling, tgt_len, bsz)
        linear_36: "f32[1, 1, 512]" = torch.ops.aten.linear.default(dropout_25, p_model_model_decoder_layers_0_self_attn_q_proj_weight, p_model_model_decoder_layers_0_self_attn_q_proj_bias)
        mul_12: "f32[1, 1, 512]" = torch.ops.aten.mul.Tensor(linear_36, 0.125);  linear_36 = None
        
         # File: /home/nlong/execu-tools/transformers/src/transformers/models/marian/modeling_marian.py:155 in _shape, code: return tensor.view(bsz, seq_len, self.num_heads, self.head_dim).transpose(1, 2).contiguous()
        view_20: "f32[1, 1, 8, 64]" = torch.ops.aten.view.default(mul_12, [1, 1, 8, 64]);  mul_12 = None
        transpose_30: "f32[1, 8, 1, 64]" = torch.ops.aten.transpose.int(view_20, 1, 2);  view_20 = None
        
         # File: /home/nlong/execu-tools/transformers/src/transformers/models/marian/modeling_marian.py:202 in forward, code: key_states = self._shape(self.k_proj(current_states), -1, bsz)
        linear_37: "f32[1, 1, 512]" = torch.ops.aten.linear.default(dropout_25, p_model_model_decoder_layers_0_self_attn_k_proj_weight, p_model_model_decoder_layers_0_self_attn_k_proj_bias)
        
         # File: /home/nlong/execu-tools/transformers/src/transformers/models/marian/modeling_marian.py:155 in _shape, code: return tensor.view(bsz, seq_len, self.num_heads, self.head_dim).transpose(1, 2).contiguous()
        view_21: "f32[1, 1, 8, 64]" = torch.ops.aten.view.default(linear_37, [1, -1, 8, 64]);  linear_37 = None
        transpose_31: "f32[1, 8, 1, 64]" = torch.ops.aten.transpose.int(view_21, 1, 2);  view_21 = None
        
         # File: /home/nlong/execu-tools/transformers/src/transformers/models/marian/modeling_marian.py:203 in forward, code: value_states = self._shape(self.v_proj(current_states), -1, bsz)
        linear_38: "f32[1, 1, 512]" = torch.ops.aten.linear.default(dropout_25, p_model_model_decoder_layers_0_self_attn_v_proj_weight, p_model_model_decoder_layers_0_self_attn_v_proj_bias)
        
         # File: /home/nlong/execu-tools/transformers/src/transformers/models/marian/modeling_marian.py:155 in _shape, code: return tensor.view(bsz, seq_len, self.num_heads, self.head_dim).transpose(1, 2).contiguous()
        view_22: "f32[1, 1, 8, 64]" = torch.ops.aten.view.default(linear_38, [1, -1, 8, 64]);  linear_38 = None
        transpose_32: "f32[1, 8, 1, 64]" = torch.ops.aten.transpose.int(view_22, 1, 2);  view_22 = None
        
         # File: /home/nlong/execu-tools/transformers/src/transformers/cache_utils.py:1198 in update, code: key_states = key_states.to(k_out.dtype)
        to_6: "f32[1, 8, 1, 64]" = torch.ops.aten.to.dtype(transpose_31, torch.float32);  transpose_31 = None
        
         # File: /home/nlong/execu-tools/transformers/src/transformers/cache_utils.py:1199 in update, code: value_states = value_states.to(v_out.dtype)
        to_7: "f32[1, 8, 1, 64]" = torch.ops.aten.to.dtype(transpose_32, torch.float32);  transpose_32 = None
        
         # File: /home/nlong/execu-tools/transformers/src/transformers/cache_utils.py:1211 in update, code: k_out[:bz].index_copy_(2, cache_position, key_states)
        slice_28: "f32[1, 8, 20, 64]" = torch.ops.aten.slice.Tensor(b___cache_self_attention_cache_key_cache_0, 0, 0, 1)
        index_copy_: "f32[1, 8, 20, 64]" = torch.ops.aten.index_copy_.default(slice_28, 2, sub, to_6);  slice_28 = to_6 = index_copy_ = None
        
         # File: /home/nlong/execu-tools/transformers/src/transformers/cache_utils.py:1212 in update, code: v_out[:bz].index_copy_(2, cache_position, value_states)
        slice_29: "f32[1, 8, 20, 64]" = torch.ops.aten.slice.Tensor(b___cache_self_attention_cache_value_cache_0, 0, 0, 1)
        index_copy__1: "f32[1, 8, 20, 64]" = torch.ops.aten.index_copy_.default(slice_29, 2, sub, to_7);  slice_29 = to_7 = index_copy__1 = None
        
         # File: /home/nlong/execu-tools/transformers/src/transformers/models/marian/modeling_marian.py:224 in forward, code: key_states = key_states_full[:batch_size, :, :, :]
        slice_30: "f32[1, 8, 20, 64]" = torch.ops.aten.slice.Tensor(b___cache_self_attention_cache_key_cache_0, 1, 0, 9223372036854775807)
        slice_31: "f32[1, 8, 20, 64]" = torch.ops.aten.slice.Tensor(slice_30, 2, 0, 9223372036854775807);  slice_30 = None
        slice_32: "f32[1, 8, 20, 64]" = torch.ops.aten.slice.Tensor(slice_31, 3, 0, 9223372036854775807);  slice_31 = None
        
         # File: /home/nlong/execu-tools/transformers/src/transformers/models/marian/modeling_marian.py:225 in forward, code: value_states = value_states_full[:batch_size, :, :, :]
        slice_33: "f32[1, 8, 20, 64]" = torch.ops.aten.slice.Tensor(b___cache_self_attention_cache_value_cache_0, 1, 0, 9223372036854775807)
        slice_34: "f32[1, 8, 20, 64]" = torch.ops.aten.slice.Tensor(slice_33, 2, 0, 9223372036854775807);  slice_33 = None
        slice_35: "f32[1, 8, 20, 64]" = torch.ops.aten.slice.Tensor(slice_34, 3, 0, 9223372036854775807);  slice_34 = None
        
         # File: /home/nlong/execu-tools/transformers/src/transformers/models/marian/modeling_marian.py:227 in forward, code: attn_weights = torch.matmul(query_states, key_states.transpose(2, 3))
        transpose_33: "f32[1, 8, 64, 20]" = torch.ops.aten.transpose.int(slice_32, 2, 3);  slice_32 = None
        matmul_12: "f32[1, 8, 1, 20]" = torch.ops.aten.matmul.default(transpose_30, transpose_33);  transpose_30 = transpose_33 = None
        
         # File: /home/nlong/execu-tools/transformers/src/transformers/models/marian/modeling_marian.py:230 in forward, code: causal_mask = attention_mask[:, :, :, : key_states.shape[-2]]
        slice_36: "f32[1, 1, 1, 20]" = torch.ops.aten.slice.Tensor(expand_2, 0, 0, 9223372036854775807)
        slice_37: "f32[1, 1, 1, 20]" = torch.ops.aten.slice.Tensor(slice_36, 1, 0, 9223372036854775807);  slice_36 = None
        slice_38: "f32[1, 1, 1, 20]" = torch.ops.aten.slice.Tensor(slice_37, 2, 0, 9223372036854775807);  slice_37 = None
        
         # File: /home/nlong/execu-tools/transformers/src/transformers/models/marian/modeling_marian.py:231 in forward, code: attn_weights = attn_weights + causal_mask
        add_21: "f32[1, 8, 1, 20]" = torch.ops.aten.add.Tensor(matmul_12, slice_38);  matmul_12 = slice_38 = None
        
         # File: /home/nlong/execu-tools/transformers/src/transformers/models/marian/modeling_marian.py:233 in forward, code: attn_weights = nn.functional.softmax(attn_weights, dim=-1)
        softmax_6: "f32[1, 8, 1, 20]" = torch.ops.aten.softmax.int(add_21, -1);  add_21 = None
        
         # File: /home/nlong/execu-tools/transformers/src/transformers/models/marian/modeling_marian.py:243 in forward, code: attn_probs = nn.functional.dropout(attn_weights, p=self.dropout, training=self.training)
        dropout_26: "f32[1, 8, 1, 20]" = torch.ops.aten.dropout.default(softmax_6, 0.0, False);  softmax_6 = None
        
         # File: /home/nlong/execu-tools/transformers/src/transformers/models/marian/modeling_marian.py:244 in forward, code: attn_output = torch.matmul(attn_probs, value_states)
        matmul_13: "f32[1, 8, 1, 64]" = torch.ops.aten.matmul.default(dropout_26, slice_35);  dropout_26 = slice_35 = None
        
         # File: /home/nlong/execu-tools/transformers/src/transformers/models/marian/modeling_marian.py:252 in forward, code: attn_output = attn_output.transpose(1, 2)
        transpose_34: "f32[1, 1, 8, 64]" = torch.ops.aten.transpose.int(matmul_13, 1, 2);  matmul_13 = None
        
         # File: /home/nlong/execu-tools/transformers/src/transformers/models/marian/modeling_marian.py:255 in forward, code: attn_output = attn_output.reshape(bsz, tgt_len, self.embed_dim)
        reshape_7: "f32[1, 1, 512]" = torch.ops.aten.reshape.default(transpose_34, [1, 1, 512]);  transpose_34 = None
        
         # File: /home/nlong/execu-tools/transformers/src/transformers/models/marian/modeling_marian.py:257 in forward, code: attn_output = self.out_proj(attn_output)
        linear_39: "f32[1, 1, 512]" = torch.ops.aten.linear.default(reshape_7, p_model_model_decoder_layers_0_self_attn_out_proj_weight, p_model_model_decoder_layers_0_self_attn_out_proj_bias);  reshape_7 = None
        
         # File: /home/nlong/execu-tools/transformers/src/transformers/models/marian/modeling_marian.py:414 in forward, code: hidden_states = nn.functional.dropout(hidden_states, p=self.dropout, training=self.training)
        dropout_27: "f32[1, 1, 512]" = torch.ops.aten.dropout.default(linear_39, 0.1, False);  linear_39 = None
        
         # File: /home/nlong/execu-tools/transformers/src/transformers/models/marian/modeling_marian.py:415 in forward, code: hidden_states = residual + hidden_states
        add_22: "f32[1, 1, 512]" = torch.ops.aten.add.Tensor(dropout_25, dropout_27);  dropout_25 = dropout_27 = None
        
         # File: /home/nlong/execu-tools/transformers/src/transformers/models/marian/modeling_marian.py:416 in forward, code: hidden_states = self.self_attn_layer_norm(hidden_states)
        layer_norm_12: "f32[1, 1, 512]" = torch.ops.aten.layer_norm.default(add_22, [512], p_model_model_decoder_layers_0_self_attn_layer_norm_weight, p_model_model_decoder_layers_0_self_attn_layer_norm_bias);  add_22 = None
        
         # File: /home/nlong/execu-tools/transformers/src/transformers/models/marian/modeling_marian.py:176 in forward, code: query_states = self._shape(self.q_proj(hidden_states) * self.scaling, tgt_len, bsz)
        linear_40: "f32[1, 1, 512]" = torch.ops.aten.linear.default(layer_norm_12, p_model_model_decoder_layers_0_encoder_attn_q_proj_weight, p_model_model_decoder_layers_0_encoder_attn_q_proj_bias)
        mul_13: "f32[1, 1, 512]" = torch.ops.aten.mul.Tensor(linear_40, 0.125);  linear_40 = None
        
         # File: /home/nlong/execu-tools/transformers/src/transformers/models/marian/modeling_marian.py:155 in _shape, code: return tensor.view(bsz, seq_len, self.num_heads, self.head_dim).transpose(1, 2).contiguous()
        view_23: "f32[1, 1, 8, 64]" = torch.ops.aten.view.default(mul_13, [1, 1, 8, 64]);  mul_13 = None
        transpose_35: "f32[1, 8, 1, 64]" = torch.ops.aten.transpose.int(view_23, 1, 2);  view_23 = None
        
         # File: /home/nlong/execu-tools/transformers/src/transformers/models/marian/modeling_marian.py:202 in forward, code: key_states = self._shape(self.k_proj(current_states), -1, bsz)
        linear_41: "f32[1, 23, 512]" = torch.ops.aten.linear.default(layer_norm_11, p_model_model_decoder_layers_0_encoder_attn_k_proj_weight, p_model_model_decoder_layers_0_encoder_attn_k_proj_bias);  p_model_model_decoder_layers_0_encoder_attn_k_proj_weight = p_model_model_decoder_layers_0_encoder_attn_k_proj_bias = None
        
         # File: /home/nlong/execu-tools/transformers/src/transformers/models/marian/modeling_marian.py:155 in _shape, code: return tensor.view(bsz, seq_len, self.num_heads, self.head_dim).transpose(1, 2).contiguous()
        view_24: "f32[1, 23, 8, 64]" = torch.ops.aten.view.default(linear_41, [1, -1, 8, 64]);  linear_41 = None
        transpose_36: "f32[1, 8, 23, 64]" = torch.ops.aten.transpose.int(view_24, 1, 2);  view_24 = None
        contiguous_18: "f32[1, 8, 23, 64]" = torch.ops.aten.contiguous.default(transpose_36);  transpose_36 = None
        
         # File: /home/nlong/execu-tools/transformers/src/transformers/models/marian/modeling_marian.py:203 in forward, code: value_states = self._shape(self.v_proj(current_states), -1, bsz)
        linear_42: "f32[1, 23, 512]" = torch.ops.aten.linear.default(layer_norm_11, p_model_model_decoder_layers_0_encoder_attn_v_proj_weight, p_model_model_decoder_layers_0_encoder_attn_v_proj_bias);  p_model_model_decoder_layers_0_encoder_attn_v_proj_weight = p_model_model_decoder_layers_0_encoder_attn_v_proj_bias = None
        
         # File: /home/nlong/execu-tools/transformers/src/transformers/models/marian/modeling_marian.py:155 in _shape, code: return tensor.view(bsz, seq_len, self.num_heads, self.head_dim).transpose(1, 2).contiguous()
        view_25: "f32[1, 23, 8, 64]" = torch.ops.aten.view.default(linear_42, [1, -1, 8, 64]);  linear_42 = None
        transpose_37: "f32[1, 8, 23, 64]" = torch.ops.aten.transpose.int(view_25, 1, 2);  view_25 = None
        contiguous_19: "f32[1, 8, 23, 64]" = torch.ops.aten.contiguous.default(transpose_37);  transpose_37 = None
        
         # File: /home/nlong/execu-tools/transformers/src/transformers/models/marian/modeling_marian.py:208 in forward, code: cache_position = torch.arange(
        arange_2: "i64[23]" = torch.ops.aten.arange.start(0, 23, device = device(type='cpu'), pin_memory = False)
        
         # File: /home/nlong/execu-tools/transformers/src/transformers/cache_utils.py:1198 in update, code: key_states = key_states.to(k_out.dtype)
        to_8: "f32[1, 8, 23, 64]" = torch.ops.aten.to.dtype(contiguous_18, torch.float32);  contiguous_18 = None
        
         # File: /home/nlong/execu-tools/transformers/src/transformers/cache_utils.py:1199 in update, code: value_states = value_states.to(v_out.dtype)
        to_9: "f32[1, 8, 23, 64]" = torch.ops.aten.to.dtype(contiguous_19, torch.float32);  contiguous_19 = None
        
         # File: /home/nlong/execu-tools/transformers/src/transformers/cache_utils.py:1211 in update, code: k_out[:bz].index_copy_(2, cache_position, key_states)
        slice_39: "f32[1, 8, 40, 64]" = torch.ops.aten.slice.Tensor(b___cache_cross_attention_cache_key_cache_0, 0, 0, 1)
        index_copy__2: "f32[1, 8, 40, 64]" = torch.ops.aten.index_copy_.default(slice_39, 2, arange_2, to_8);  slice_39 = to_8 = index_copy__2 = None
        
         # File: /home/nlong/execu-tools/transformers/src/transformers/cache_utils.py:1212 in update, code: v_out[:bz].index_copy_(2, cache_position, value_states)
        slice_40: "f32[1, 8, 40, 64]" = torch.ops.aten.slice.Tensor(b___cache_cross_attention_cache_value_cache_0, 0, 0, 1)
        index_copy__3: "f32[1, 8, 40, 64]" = torch.ops.aten.index_copy_.default(slice_40, 2, arange_2, to_9);  slice_40 = arange_2 = to_9 = index_copy__3 = None
        
         # File: /home/nlong/execu-tools/transformers/src/transformers/models/marian/modeling_marian.py:217 in forward, code: key_states = key_states_full[:batch_size, :, :cross_seq_length, :]
        slice_41: "f32[1, 8, 40, 64]" = torch.ops.aten.slice.Tensor(b___cache_cross_attention_cache_key_cache_0, 1, 0, 9223372036854775807)
        slice_42: "f32[1, 8, 23, 64]" = torch.ops.aten.slice.Tensor(slice_41, 2, 0, 23);  slice_41 = None
        slice_43: "f32[1, 8, 23, 64]" = torch.ops.aten.slice.Tensor(slice_42, 3, 0, 9223372036854775807);  slice_42 = None
        
         # File: /home/nlong/execu-tools/transformers/src/transformers/models/marian/modeling_marian.py:218 in forward, code: value_states = value_states_full[:batch_size, :, :cross_seq_length, :]
        slice_44: "f32[1, 8, 40, 64]" = torch.ops.aten.slice.Tensor(b___cache_cross_attention_cache_value_cache_0, 1, 0, 9223372036854775807)
        slice_45: "f32[1, 8, 23, 64]" = torch.ops.aten.slice.Tensor(slice_44, 2, 0, 23);  slice_44 = None
        slice_46: "f32[1, 8, 23, 64]" = torch.ops.aten.slice.Tensor(slice_45, 3, 0, 9223372036854775807);  slice_45 = None
        
         # File: /home/nlong/execu-tools/transformers/src/transformers/models/marian/modeling_marian.py:227 in forward, code: attn_weights = torch.matmul(query_states, key_states.transpose(2, 3))
        transpose_38: "f32[1, 8, 64, 23]" = torch.ops.aten.transpose.int(slice_43, 2, 3);  slice_43 = None
        matmul_14: "f32[1, 8, 1, 23]" = torch.ops.aten.matmul.default(transpose_35, transpose_38);  transpose_35 = transpose_38 = None
        
         # File: /home/nlong/execu-tools/transformers/src/transformers/models/marian/modeling_marian.py:230 in forward, code: causal_mask = attention_mask[:, :, :, : key_states.shape[-2]]
        slice_47: "f32[1, 1, 1, 23]" = torch.ops.aten.slice.Tensor(masked_fill_1, 0, 0, 9223372036854775807)
        slice_48: "f32[1, 1, 1, 23]" = torch.ops.aten.slice.Tensor(slice_47, 1, 0, 9223372036854775807);  slice_47 = None
        slice_49: "f32[1, 1, 1, 23]" = torch.ops.aten.slice.Tensor(slice_48, 2, 0, 9223372036854775807);  slice_48 = None
        
         # File: /home/nlong/execu-tools/transformers/src/transformers/models/marian/modeling_marian.py:231 in forward, code: attn_weights = attn_weights + causal_mask
        add_23: "f32[1, 8, 1, 23]" = torch.ops.aten.add.Tensor(matmul_14, slice_49);  matmul_14 = slice_49 = None
        
         # File: /home/nlong/execu-tools/transformers/src/transformers/models/marian/modeling_marian.py:233 in forward, code: attn_weights = nn.functional.softmax(attn_weights, dim=-1)
        softmax_7: "f32[1, 8, 1, 23]" = torch.ops.aten.softmax.int(add_23, -1);  add_23 = None
        
         # File: /home/nlong/execu-tools/transformers/src/transformers/models/marian/modeling_marian.py:243 in forward, code: attn_probs = nn.functional.dropout(attn_weights, p=self.dropout, training=self.training)
        dropout_28: "f32[1, 8, 1, 23]" = torch.ops.aten.dropout.default(softmax_7, 0.0, False);  softmax_7 = None
        
         # File: /home/nlong/execu-tools/transformers/src/transformers/models/marian/modeling_marian.py:244 in forward, code: attn_output = torch.matmul(attn_probs, value_states)
        matmul_15: "f32[1, 8, 1, 64]" = torch.ops.aten.matmul.default(dropout_28, slice_46);  dropout_28 = slice_46 = None
        
         # File: /home/nlong/execu-tools/transformers/src/transformers/models/marian/modeling_marian.py:252 in forward, code: attn_output = attn_output.transpose(1, 2)
        transpose_39: "f32[1, 1, 8, 64]" = torch.ops.aten.transpose.int(matmul_15, 1, 2);  matmul_15 = None
        
         # File: /home/nlong/execu-tools/transformers/src/transformers/models/marian/modeling_marian.py:255 in forward, code: attn_output = attn_output.reshape(bsz, tgt_len, self.embed_dim)
        reshape_8: "f32[1, 1, 512]" = torch.ops.aten.reshape.default(transpose_39, [1, 1, 512]);  transpose_39 = None
        
         # File: /home/nlong/execu-tools/transformers/src/transformers/models/marian/modeling_marian.py:257 in forward, code: attn_output = self.out_proj(attn_output)
        linear_43: "f32[1, 1, 512]" = torch.ops.aten.linear.default(reshape_8, p_model_model_decoder_layers_0_encoder_attn_out_proj_weight, p_model_model_decoder_layers_0_encoder_attn_out_proj_bias);  reshape_8 = None
        
         # File: /home/nlong/execu-tools/transformers/src/transformers/models/marian/modeling_marian.py:434 in forward, code: hidden_states = nn.functional.dropout(hidden_states, p=self.dropout, training=self.training)
        dropout_29: "f32[1, 1, 512]" = torch.ops.aten.dropout.default(linear_43, 0.1, False);  linear_43 = None
        
         # File: /home/nlong/execu-tools/transformers/src/transformers/models/marian/modeling_marian.py:435 in forward, code: hidden_states = residual + hidden_states
        add_24: "f32[1, 1, 512]" = torch.ops.aten.add.Tensor(layer_norm_12, dropout_29);  layer_norm_12 = dropout_29 = None
        
         # File: /home/nlong/execu-tools/transformers/src/transformers/models/marian/modeling_marian.py:436 in forward, code: hidden_states = self.encoder_attn_layer_norm(hidden_states)
        layer_norm_13: "f32[1, 1, 512]" = torch.ops.aten.layer_norm.default(add_24, [512], p_model_model_decoder_layers_0_encoder_attn_layer_norm_weight, p_model_model_decoder_layers_0_encoder_attn_layer_norm_bias);  add_24 = None
        
         # File: /home/nlong/execu-tools/transformers/src/transformers/models/marian/modeling_marian.py:443 in forward, code: hidden_states = self.activation_fn(self.fc1(hidden_states))
        linear_44: "f32[1, 1, 2048]" = torch.ops.aten.linear.default(layer_norm_13, p_model_model_decoder_layers_0_fc1_weight, p_model_model_decoder_layers_0_fc1_bias)
        silu_6: "f32[1, 1, 2048]" = torch.ops.aten.silu.default(linear_44);  linear_44 = None
        
         # File: /home/nlong/execu-tools/transformers/src/transformers/models/marian/modeling_marian.py:444 in forward, code: hidden_states = nn.functional.dropout(hidden_states, p=self.activation_dropout, training=self.training)
        dropout_30: "f32[1, 1, 2048]" = torch.ops.aten.dropout.default(silu_6, 0.0, False);  silu_6 = None
        
         # File: /home/nlong/execu-tools/transformers/src/transformers/models/marian/modeling_marian.py:445 in forward, code: hidden_states = self.fc2(hidden_states)
        linear_45: "f32[1, 1, 512]" = torch.ops.aten.linear.default(dropout_30, p_model_model_decoder_layers_0_fc2_weight, p_model_model_decoder_layers_0_fc2_bias);  dropout_30 = None
        
         # File: /home/nlong/execu-tools/transformers/src/transformers/models/marian/modeling_marian.py:446 in forward, code: hidden_states = nn.functional.dropout(hidden_states, p=self.dropout, training=self.training)
        dropout_31: "f32[1, 1, 512]" = torch.ops.aten.dropout.default(linear_45, 0.1, False);  linear_45 = None
        
         # File: /home/nlong/execu-tools/transformers/src/transformers/models/marian/modeling_marian.py:447 in forward, code: hidden_states = residual + hidden_states
        add_25: "f32[1, 1, 512]" = torch.ops.aten.add.Tensor(layer_norm_13, dropout_31);  layer_norm_13 = dropout_31 = None
        
         # File: /home/nlong/execu-tools/transformers/src/transformers/models/marian/modeling_marian.py:448 in forward, code: hidden_states = self.final_layer_norm(hidden_states)
        layer_norm_14: "f32[1, 1, 512]" = torch.ops.aten.layer_norm.default(add_25, [512], p_model_model_decoder_layers_0_final_layer_norm_weight, p_model_model_decoder_layers_0_final_layer_norm_bias);  add_25 = None
        
         # File: /home/nlong/execu-tools/transformers/src/transformers/models/marian/modeling_marian.py:176 in forward, code: query_states = self._shape(self.q_proj(hidden_states) * self.scaling, tgt_len, bsz)
        linear_46: "f32[1, 1, 512]" = torch.ops.aten.linear.default(layer_norm_14, p_model_model_decoder_layers_1_self_attn_q_proj_weight, p_model_model_decoder_layers_1_self_attn_q_proj_bias)
        mul_14: "f32[1, 1, 512]" = torch.ops.aten.mul.Tensor(linear_46, 0.125);  linear_46 = None
        
         # File: /home/nlong/execu-tools/transformers/src/transformers/models/marian/modeling_marian.py:155 in _shape, code: return tensor.view(bsz, seq_len, self.num_heads, self.head_dim).transpose(1, 2).contiguous()
        view_26: "f32[1, 1, 8, 64]" = torch.ops.aten.view.default(mul_14, [1, 1, 8, 64]);  mul_14 = None
        transpose_40: "f32[1, 8, 1, 64]" = torch.ops.aten.transpose.int(view_26, 1, 2);  view_26 = None
        
         # File: /home/nlong/execu-tools/transformers/src/transformers/models/marian/modeling_marian.py:202 in forward, code: key_states = self._shape(self.k_proj(current_states), -1, bsz)
        linear_47: "f32[1, 1, 512]" = torch.ops.aten.linear.default(layer_norm_14, p_model_model_decoder_layers_1_self_attn_k_proj_weight, p_model_model_decoder_layers_1_self_attn_k_proj_bias)
        
         # File: /home/nlong/execu-tools/transformers/src/transformers/models/marian/modeling_marian.py:155 in _shape, code: return tensor.view(bsz, seq_len, self.num_heads, self.head_dim).transpose(1, 2).contiguous()
        view_27: "f32[1, 1, 8, 64]" = torch.ops.aten.view.default(linear_47, [1, -1, 8, 64]);  linear_47 = None
        transpose_41: "f32[1, 8, 1, 64]" = torch.ops.aten.transpose.int(view_27, 1, 2);  view_27 = None
        
         # File: /home/nlong/execu-tools/transformers/src/transformers/models/marian/modeling_marian.py:203 in forward, code: value_states = self._shape(self.v_proj(current_states), -1, bsz)
        linear_48: "f32[1, 1, 512]" = torch.ops.aten.linear.default(layer_norm_14, p_model_model_decoder_layers_1_self_attn_v_proj_weight, p_model_model_decoder_layers_1_self_attn_v_proj_bias)
        
         # File: /home/nlong/execu-tools/transformers/src/transformers/models/marian/modeling_marian.py:155 in _shape, code: return tensor.view(bsz, seq_len, self.num_heads, self.head_dim).transpose(1, 2).contiguous()
        view_28: "f32[1, 1, 8, 64]" = torch.ops.aten.view.default(linear_48, [1, -1, 8, 64]);  linear_48 = None
        transpose_42: "f32[1, 8, 1, 64]" = torch.ops.aten.transpose.int(view_28, 1, 2);  view_28 = None
        
         # File: /home/nlong/execu-tools/transformers/src/transformers/cache_utils.py:1198 in update, code: key_states = key_states.to(k_out.dtype)
        to_10: "f32[1, 8, 1, 64]" = torch.ops.aten.to.dtype(transpose_41, torch.float32);  transpose_41 = None
        
         # File: /home/nlong/execu-tools/transformers/src/transformers/cache_utils.py:1199 in update, code: value_states = value_states.to(v_out.dtype)
        to_11: "f32[1, 8, 1, 64]" = torch.ops.aten.to.dtype(transpose_42, torch.float32);  transpose_42 = None
        
         # File: /home/nlong/execu-tools/transformers/src/transformers/cache_utils.py:1211 in update, code: k_out[:bz].index_copy_(2, cache_position, key_states)
        slice_50: "f32[1, 8, 20, 64]" = torch.ops.aten.slice.Tensor(b___cache_self_attention_cache_key_cache_1, 0, 0, 1)
        index_copy__4: "f32[1, 8, 20, 64]" = torch.ops.aten.index_copy_.default(slice_50, 2, sub, to_10);  slice_50 = to_10 = index_copy__4 = None
        
         # File: /home/nlong/execu-tools/transformers/src/transformers/cache_utils.py:1212 in update, code: v_out[:bz].index_copy_(2, cache_position, value_states)
        slice_51: "f32[1, 8, 20, 64]" = torch.ops.aten.slice.Tensor(b___cache_self_attention_cache_value_cache_1, 0, 0, 1)
        index_copy__5: "f32[1, 8, 20, 64]" = torch.ops.aten.index_copy_.default(slice_51, 2, sub, to_11);  slice_51 = to_11 = index_copy__5 = None
        
         # File: /home/nlong/execu-tools/transformers/src/transformers/models/marian/modeling_marian.py:224 in forward, code: key_states = key_states_full[:batch_size, :, :, :]
        slice_52: "f32[1, 8, 20, 64]" = torch.ops.aten.slice.Tensor(b___cache_self_attention_cache_key_cache_1, 1, 0, 9223372036854775807)
        slice_53: "f32[1, 8, 20, 64]" = torch.ops.aten.slice.Tensor(slice_52, 2, 0, 9223372036854775807);  slice_52 = None
        slice_54: "f32[1, 8, 20, 64]" = torch.ops.aten.slice.Tensor(slice_53, 3, 0, 9223372036854775807);  slice_53 = None
        
         # File: /home/nlong/execu-tools/transformers/src/transformers/models/marian/modeling_marian.py:225 in forward, code: value_states = value_states_full[:batch_size, :, :, :]
        slice_55: "f32[1, 8, 20, 64]" = torch.ops.aten.slice.Tensor(b___cache_self_attention_cache_value_cache_1, 1, 0, 9223372036854775807)
        slice_56: "f32[1, 8, 20, 64]" = torch.ops.aten.slice.Tensor(slice_55, 2, 0, 9223372036854775807);  slice_55 = None
        slice_57: "f32[1, 8, 20, 64]" = torch.ops.aten.slice.Tensor(slice_56, 3, 0, 9223372036854775807);  slice_56 = None
        
         # File: /home/nlong/execu-tools/transformers/src/transformers/models/marian/modeling_marian.py:227 in forward, code: attn_weights = torch.matmul(query_states, key_states.transpose(2, 3))
        transpose_43: "f32[1, 8, 64, 20]" = torch.ops.aten.transpose.int(slice_54, 2, 3);  slice_54 = None
        matmul_16: "f32[1, 8, 1, 20]" = torch.ops.aten.matmul.default(transpose_40, transpose_43);  transpose_40 = transpose_43 = None
        
         # File: /home/nlong/execu-tools/transformers/src/transformers/models/marian/modeling_marian.py:230 in forward, code: causal_mask = attention_mask[:, :, :, : key_states.shape[-2]]
        slice_58: "f32[1, 1, 1, 20]" = torch.ops.aten.slice.Tensor(expand_2, 0, 0, 9223372036854775807)
        slice_59: "f32[1, 1, 1, 20]" = torch.ops.aten.slice.Tensor(slice_58, 1, 0, 9223372036854775807);  slice_58 = None
        slice_60: "f32[1, 1, 1, 20]" = torch.ops.aten.slice.Tensor(slice_59, 2, 0, 9223372036854775807);  slice_59 = None
        
         # File: /home/nlong/execu-tools/transformers/src/transformers/models/marian/modeling_marian.py:231 in forward, code: attn_weights = attn_weights + causal_mask
        add_26: "f32[1, 8, 1, 20]" = torch.ops.aten.add.Tensor(matmul_16, slice_60);  matmul_16 = slice_60 = None
        
         # File: /home/nlong/execu-tools/transformers/src/transformers/models/marian/modeling_marian.py:233 in forward, code: attn_weights = nn.functional.softmax(attn_weights, dim=-1)
        softmax_8: "f32[1, 8, 1, 20]" = torch.ops.aten.softmax.int(add_26, -1);  add_26 = None
        
         # File: /home/nlong/execu-tools/transformers/src/transformers/models/marian/modeling_marian.py:243 in forward, code: attn_probs = nn.functional.dropout(attn_weights, p=self.dropout, training=self.training)
        dropout_32: "f32[1, 8, 1, 20]" = torch.ops.aten.dropout.default(softmax_8, 0.0, False);  softmax_8 = None
        
         # File: /home/nlong/execu-tools/transformers/src/transformers/models/marian/modeling_marian.py:244 in forward, code: attn_output = torch.matmul(attn_probs, value_states)
        matmul_17: "f32[1, 8, 1, 64]" = torch.ops.aten.matmul.default(dropout_32, slice_57);  dropout_32 = slice_57 = None
        
         # File: /home/nlong/execu-tools/transformers/src/transformers/models/marian/modeling_marian.py:252 in forward, code: attn_output = attn_output.transpose(1, 2)
        transpose_44: "f32[1, 1, 8, 64]" = torch.ops.aten.transpose.int(matmul_17, 1, 2);  matmul_17 = None
        
         # File: /home/nlong/execu-tools/transformers/src/transformers/models/marian/modeling_marian.py:255 in forward, code: attn_output = attn_output.reshape(bsz, tgt_len, self.embed_dim)
        reshape_9: "f32[1, 1, 512]" = torch.ops.aten.reshape.default(transpose_44, [1, 1, 512]);  transpose_44 = None
        
         # File: /home/nlong/execu-tools/transformers/src/transformers/models/marian/modeling_marian.py:257 in forward, code: attn_output = self.out_proj(attn_output)
        linear_49: "f32[1, 1, 512]" = torch.ops.aten.linear.default(reshape_9, p_model_model_decoder_layers_1_self_attn_out_proj_weight, p_model_model_decoder_layers_1_self_attn_out_proj_bias);  reshape_9 = None
        
         # File: /home/nlong/execu-tools/transformers/src/transformers/models/marian/modeling_marian.py:414 in forward, code: hidden_states = nn.functional.dropout(hidden_states, p=self.dropout, training=self.training)
        dropout_33: "f32[1, 1, 512]" = torch.ops.aten.dropout.default(linear_49, 0.1, False);  linear_49 = None
        
         # File: /home/nlong/execu-tools/transformers/src/transformers/models/marian/modeling_marian.py:415 in forward, code: hidden_states = residual + hidden_states
        add_27: "f32[1, 1, 512]" = torch.ops.aten.add.Tensor(layer_norm_14, dropout_33);  layer_norm_14 = dropout_33 = None
        
         # File: /home/nlong/execu-tools/transformers/src/transformers/models/marian/modeling_marian.py:416 in forward, code: hidden_states = self.self_attn_layer_norm(hidden_states)
        layer_norm_15: "f32[1, 1, 512]" = torch.ops.aten.layer_norm.default(add_27, [512], p_model_model_decoder_layers_1_self_attn_layer_norm_weight, p_model_model_decoder_layers_1_self_attn_layer_norm_bias);  add_27 = None
        
         # File: /home/nlong/execu-tools/transformers/src/transformers/models/marian/modeling_marian.py:176 in forward, code: query_states = self._shape(self.q_proj(hidden_states) * self.scaling, tgt_len, bsz)
        linear_50: "f32[1, 1, 512]" = torch.ops.aten.linear.default(layer_norm_15, p_model_model_decoder_layers_1_encoder_attn_q_proj_weight, p_model_model_decoder_layers_1_encoder_attn_q_proj_bias)
        mul_15: "f32[1, 1, 512]" = torch.ops.aten.mul.Tensor(linear_50, 0.125);  linear_50 = None
        
         # File: /home/nlong/execu-tools/transformers/src/transformers/models/marian/modeling_marian.py:155 in _shape, code: return tensor.view(bsz, seq_len, self.num_heads, self.head_dim).transpose(1, 2).contiguous()
        view_29: "f32[1, 1, 8, 64]" = torch.ops.aten.view.default(mul_15, [1, 1, 8, 64]);  mul_15 = None
        transpose_45: "f32[1, 8, 1, 64]" = torch.ops.aten.transpose.int(view_29, 1, 2);  view_29 = None
        
         # File: /home/nlong/execu-tools/transformers/src/transformers/models/marian/modeling_marian.py:202 in forward, code: key_states = self._shape(self.k_proj(current_states), -1, bsz)
        linear_51: "f32[1, 23, 512]" = torch.ops.aten.linear.default(layer_norm_11, p_model_model_decoder_layers_1_encoder_attn_k_proj_weight, p_model_model_decoder_layers_1_encoder_attn_k_proj_bias);  p_model_model_decoder_layers_1_encoder_attn_k_proj_weight = p_model_model_decoder_layers_1_encoder_attn_k_proj_bias = None
        
         # File: /home/nlong/execu-tools/transformers/src/transformers/models/marian/modeling_marian.py:155 in _shape, code: return tensor.view(bsz, seq_len, self.num_heads, self.head_dim).transpose(1, 2).contiguous()
        view_30: "f32[1, 23, 8, 64]" = torch.ops.aten.view.default(linear_51, [1, -1, 8, 64]);  linear_51 = None
        transpose_46: "f32[1, 8, 23, 64]" = torch.ops.aten.transpose.int(view_30, 1, 2);  view_30 = None
        contiguous_20: "f32[1, 8, 23, 64]" = torch.ops.aten.contiguous.default(transpose_46);  transpose_46 = None
        
         # File: /home/nlong/execu-tools/transformers/src/transformers/models/marian/modeling_marian.py:203 in forward, code: value_states = self._shape(self.v_proj(current_states), -1, bsz)
        linear_52: "f32[1, 23, 512]" = torch.ops.aten.linear.default(layer_norm_11, p_model_model_decoder_layers_1_encoder_attn_v_proj_weight, p_model_model_decoder_layers_1_encoder_attn_v_proj_bias);  p_model_model_decoder_layers_1_encoder_attn_v_proj_weight = p_model_model_decoder_layers_1_encoder_attn_v_proj_bias = None
        
         # File: /home/nlong/execu-tools/transformers/src/transformers/models/marian/modeling_marian.py:155 in _shape, code: return tensor.view(bsz, seq_len, self.num_heads, self.head_dim).transpose(1, 2).contiguous()
        view_31: "f32[1, 23, 8, 64]" = torch.ops.aten.view.default(linear_52, [1, -1, 8, 64]);  linear_52 = None
        transpose_47: "f32[1, 8, 23, 64]" = torch.ops.aten.transpose.int(view_31, 1, 2);  view_31 = None
        contiguous_21: "f32[1, 8, 23, 64]" = torch.ops.aten.contiguous.default(transpose_47);  transpose_47 = None
        
         # File: /home/nlong/execu-tools/transformers/src/transformers/models/marian/modeling_marian.py:208 in forward, code: cache_position = torch.arange(
        arange_3: "i64[23]" = torch.ops.aten.arange.start(0, 23, device = device(type='cpu'), pin_memory = False)
        
         # File: /home/nlong/execu-tools/transformers/src/transformers/cache_utils.py:1198 in update, code: key_states = key_states.to(k_out.dtype)
        to_12: "f32[1, 8, 23, 64]" = torch.ops.aten.to.dtype(contiguous_20, torch.float32);  contiguous_20 = None
        
         # File: /home/nlong/execu-tools/transformers/src/transformers/cache_utils.py:1199 in update, code: value_states = value_states.to(v_out.dtype)
        to_13: "f32[1, 8, 23, 64]" = torch.ops.aten.to.dtype(contiguous_21, torch.float32);  contiguous_21 = None
        
         # File: /home/nlong/execu-tools/transformers/src/transformers/cache_utils.py:1211 in update, code: k_out[:bz].index_copy_(2, cache_position, key_states)
        slice_61: "f32[1, 8, 40, 64]" = torch.ops.aten.slice.Tensor(b___cache_cross_attention_cache_key_cache_1, 0, 0, 1)
        index_copy__6: "f32[1, 8, 40, 64]" = torch.ops.aten.index_copy_.default(slice_61, 2, arange_3, to_12);  slice_61 = to_12 = index_copy__6 = None
        
         # File: /home/nlong/execu-tools/transformers/src/transformers/cache_utils.py:1212 in update, code: v_out[:bz].index_copy_(2, cache_position, value_states)
        slice_62: "f32[1, 8, 40, 64]" = torch.ops.aten.slice.Tensor(b___cache_cross_attention_cache_value_cache_1, 0, 0, 1)
        index_copy__7: "f32[1, 8, 40, 64]" = torch.ops.aten.index_copy_.default(slice_62, 2, arange_3, to_13);  slice_62 = arange_3 = to_13 = index_copy__7 = None
        
         # File: /home/nlong/execu-tools/transformers/src/transformers/models/marian/modeling_marian.py:217 in forward, code: key_states = key_states_full[:batch_size, :, :cross_seq_length, :]
        slice_63: "f32[1, 8, 40, 64]" = torch.ops.aten.slice.Tensor(b___cache_cross_attention_cache_key_cache_1, 1, 0, 9223372036854775807)
        slice_64: "f32[1, 8, 23, 64]" = torch.ops.aten.slice.Tensor(slice_63, 2, 0, 23);  slice_63 = None
        slice_65: "f32[1, 8, 23, 64]" = torch.ops.aten.slice.Tensor(slice_64, 3, 0, 9223372036854775807);  slice_64 = None
        
         # File: /home/nlong/execu-tools/transformers/src/transformers/models/marian/modeling_marian.py:218 in forward, code: value_states = value_states_full[:batch_size, :, :cross_seq_length, :]
        slice_66: "f32[1, 8, 40, 64]" = torch.ops.aten.slice.Tensor(b___cache_cross_attention_cache_value_cache_1, 1, 0, 9223372036854775807)
        slice_67: "f32[1, 8, 23, 64]" = torch.ops.aten.slice.Tensor(slice_66, 2, 0, 23);  slice_66 = None
        slice_68: "f32[1, 8, 23, 64]" = torch.ops.aten.slice.Tensor(slice_67, 3, 0, 9223372036854775807);  slice_67 = None
        
         # File: /home/nlong/execu-tools/transformers/src/transformers/models/marian/modeling_marian.py:227 in forward, code: attn_weights = torch.matmul(query_states, key_states.transpose(2, 3))
        transpose_48: "f32[1, 8, 64, 23]" = torch.ops.aten.transpose.int(slice_65, 2, 3);  slice_65 = None
        matmul_18: "f32[1, 8, 1, 23]" = torch.ops.aten.matmul.default(transpose_45, transpose_48);  transpose_45 = transpose_48 = None
        
         # File: /home/nlong/execu-tools/transformers/src/transformers/models/marian/modeling_marian.py:230 in forward, code: causal_mask = attention_mask[:, :, :, : key_states.shape[-2]]
        slice_69: "f32[1, 1, 1, 23]" = torch.ops.aten.slice.Tensor(masked_fill_1, 0, 0, 9223372036854775807)
        slice_70: "f32[1, 1, 1, 23]" = torch.ops.aten.slice.Tensor(slice_69, 1, 0, 9223372036854775807);  slice_69 = None
        slice_71: "f32[1, 1, 1, 23]" = torch.ops.aten.slice.Tensor(slice_70, 2, 0, 9223372036854775807);  slice_70 = None
        
         # File: /home/nlong/execu-tools/transformers/src/transformers/models/marian/modeling_marian.py:231 in forward, code: attn_weights = attn_weights + causal_mask
        add_28: "f32[1, 8, 1, 23]" = torch.ops.aten.add.Tensor(matmul_18, slice_71);  matmul_18 = slice_71 = None
        
         # File: /home/nlong/execu-tools/transformers/src/transformers/models/marian/modeling_marian.py:233 in forward, code: attn_weights = nn.functional.softmax(attn_weights, dim=-1)
        softmax_9: "f32[1, 8, 1, 23]" = torch.ops.aten.softmax.int(add_28, -1);  add_28 = None
        
         # File: /home/nlong/execu-tools/transformers/src/transformers/models/marian/modeling_marian.py:243 in forward, code: attn_probs = nn.functional.dropout(attn_weights, p=self.dropout, training=self.training)
        dropout_34: "f32[1, 8, 1, 23]" = torch.ops.aten.dropout.default(softmax_9, 0.0, False);  softmax_9 = None
        
         # File: /home/nlong/execu-tools/transformers/src/transformers/models/marian/modeling_marian.py:244 in forward, code: attn_output = torch.matmul(attn_probs, value_states)
        matmul_19: "f32[1, 8, 1, 64]" = torch.ops.aten.matmul.default(dropout_34, slice_68);  dropout_34 = slice_68 = None
        
         # File: /home/nlong/execu-tools/transformers/src/transformers/models/marian/modeling_marian.py:252 in forward, code: attn_output = attn_output.transpose(1, 2)
        transpose_49: "f32[1, 1, 8, 64]" = torch.ops.aten.transpose.int(matmul_19, 1, 2);  matmul_19 = None
        
         # File: /home/nlong/execu-tools/transformers/src/transformers/models/marian/modeling_marian.py:255 in forward, code: attn_output = attn_output.reshape(bsz, tgt_len, self.embed_dim)
        reshape_10: "f32[1, 1, 512]" = torch.ops.aten.reshape.default(transpose_49, [1, 1, 512]);  transpose_49 = None
        
         # File: /home/nlong/execu-tools/transformers/src/transformers/models/marian/modeling_marian.py:257 in forward, code: attn_output = self.out_proj(attn_output)
        linear_53: "f32[1, 1, 512]" = torch.ops.aten.linear.default(reshape_10, p_model_model_decoder_layers_1_encoder_attn_out_proj_weight, p_model_model_decoder_layers_1_encoder_attn_out_proj_bias);  reshape_10 = None
        
         # File: /home/nlong/execu-tools/transformers/src/transformers/models/marian/modeling_marian.py:434 in forward, code: hidden_states = nn.functional.dropout(hidden_states, p=self.dropout, training=self.training)
        dropout_35: "f32[1, 1, 512]" = torch.ops.aten.dropout.default(linear_53, 0.1, False);  linear_53 = None
        
         # File: /home/nlong/execu-tools/transformers/src/transformers/models/marian/modeling_marian.py:435 in forward, code: hidden_states = residual + hidden_states
        add_29: "f32[1, 1, 512]" = torch.ops.aten.add.Tensor(layer_norm_15, dropout_35);  layer_norm_15 = dropout_35 = None
        
         # File: /home/nlong/execu-tools/transformers/src/transformers/models/marian/modeling_marian.py:436 in forward, code: hidden_states = self.encoder_attn_layer_norm(hidden_states)
        layer_norm_16: "f32[1, 1, 512]" = torch.ops.aten.layer_norm.default(add_29, [512], p_model_model_decoder_layers_1_encoder_attn_layer_norm_weight, p_model_model_decoder_layers_1_encoder_attn_layer_norm_bias);  add_29 = None
        
         # File: /home/nlong/execu-tools/transformers/src/transformers/models/marian/modeling_marian.py:443 in forward, code: hidden_states = self.activation_fn(self.fc1(hidden_states))
        linear_54: "f32[1, 1, 2048]" = torch.ops.aten.linear.default(layer_norm_16, p_model_model_decoder_layers_1_fc1_weight, p_model_model_decoder_layers_1_fc1_bias)
        silu_7: "f32[1, 1, 2048]" = torch.ops.aten.silu.default(linear_54);  linear_54 = None
        
         # File: /home/nlong/execu-tools/transformers/src/transformers/models/marian/modeling_marian.py:444 in forward, code: hidden_states = nn.functional.dropout(hidden_states, p=self.activation_dropout, training=self.training)
        dropout_36: "f32[1, 1, 2048]" = torch.ops.aten.dropout.default(silu_7, 0.0, False);  silu_7 = None
        
         # File: /home/nlong/execu-tools/transformers/src/transformers/models/marian/modeling_marian.py:445 in forward, code: hidden_states = self.fc2(hidden_states)
        linear_55: "f32[1, 1, 512]" = torch.ops.aten.linear.default(dropout_36, p_model_model_decoder_layers_1_fc2_weight, p_model_model_decoder_layers_1_fc2_bias);  dropout_36 = None
        
         # File: /home/nlong/execu-tools/transformers/src/transformers/models/marian/modeling_marian.py:446 in forward, code: hidden_states = nn.functional.dropout(hidden_states, p=self.dropout, training=self.training)
        dropout_37: "f32[1, 1, 512]" = torch.ops.aten.dropout.default(linear_55, 0.1, False);  linear_55 = None
        
         # File: /home/nlong/execu-tools/transformers/src/transformers/models/marian/modeling_marian.py:447 in forward, code: hidden_states = residual + hidden_states
        add_30: "f32[1, 1, 512]" = torch.ops.aten.add.Tensor(layer_norm_16, dropout_37);  layer_norm_16 = dropout_37 = None
        
         # File: /home/nlong/execu-tools/transformers/src/transformers/models/marian/modeling_marian.py:448 in forward, code: hidden_states = self.final_layer_norm(hidden_states)
        layer_norm_17: "f32[1, 1, 512]" = torch.ops.aten.layer_norm.default(add_30, [512], p_model_model_decoder_layers_1_final_layer_norm_weight, p_model_model_decoder_layers_1_final_layer_norm_bias);  add_30 = None
        
         # File: /home/nlong/execu-tools/transformers/src/transformers/models/marian/modeling_marian.py:176 in forward, code: query_states = self._shape(self.q_proj(hidden_states) * self.scaling, tgt_len, bsz)
        linear_56: "f32[1, 1, 512]" = torch.ops.aten.linear.default(layer_norm_17, p_model_model_decoder_layers_2_self_attn_q_proj_weight, p_model_model_decoder_layers_2_self_attn_q_proj_bias)
        mul_16: "f32[1, 1, 512]" = torch.ops.aten.mul.Tensor(linear_56, 0.125);  linear_56 = None
        
         # File: /home/nlong/execu-tools/transformers/src/transformers/models/marian/modeling_marian.py:155 in _shape, code: return tensor.view(bsz, seq_len, self.num_heads, self.head_dim).transpose(1, 2).contiguous()
        view_32: "f32[1, 1, 8, 64]" = torch.ops.aten.view.default(mul_16, [1, 1, 8, 64]);  mul_16 = None
        transpose_50: "f32[1, 8, 1, 64]" = torch.ops.aten.transpose.int(view_32, 1, 2);  view_32 = None
        
         # File: /home/nlong/execu-tools/transformers/src/transformers/models/marian/modeling_marian.py:202 in forward, code: key_states = self._shape(self.k_proj(current_states), -1, bsz)
        linear_57: "f32[1, 1, 512]" = torch.ops.aten.linear.default(layer_norm_17, p_model_model_decoder_layers_2_self_attn_k_proj_weight, p_model_model_decoder_layers_2_self_attn_k_proj_bias)
        
         # File: /home/nlong/execu-tools/transformers/src/transformers/models/marian/modeling_marian.py:155 in _shape, code: return tensor.view(bsz, seq_len, self.num_heads, self.head_dim).transpose(1, 2).contiguous()
        view_33: "f32[1, 1, 8, 64]" = torch.ops.aten.view.default(linear_57, [1, -1, 8, 64]);  linear_57 = None
        transpose_51: "f32[1, 8, 1, 64]" = torch.ops.aten.transpose.int(view_33, 1, 2);  view_33 = None
        
         # File: /home/nlong/execu-tools/transformers/src/transformers/models/marian/modeling_marian.py:203 in forward, code: value_states = self._shape(self.v_proj(current_states), -1, bsz)
        linear_58: "f32[1, 1, 512]" = torch.ops.aten.linear.default(layer_norm_17, p_model_model_decoder_layers_2_self_attn_v_proj_weight, p_model_model_decoder_layers_2_self_attn_v_proj_bias)
        
         # File: /home/nlong/execu-tools/transformers/src/transformers/models/marian/modeling_marian.py:155 in _shape, code: return tensor.view(bsz, seq_len, self.num_heads, self.head_dim).transpose(1, 2).contiguous()
        view_34: "f32[1, 1, 8, 64]" = torch.ops.aten.view.default(linear_58, [1, -1, 8, 64]);  linear_58 = None
        transpose_52: "f32[1, 8, 1, 64]" = torch.ops.aten.transpose.int(view_34, 1, 2);  view_34 = None
        
         # File: /home/nlong/execu-tools/transformers/src/transformers/cache_utils.py:1198 in update, code: key_states = key_states.to(k_out.dtype)
        to_14: "f32[1, 8, 1, 64]" = torch.ops.aten.to.dtype(transpose_51, torch.float32);  transpose_51 = None
        
         # File: /home/nlong/execu-tools/transformers/src/transformers/cache_utils.py:1199 in update, code: value_states = value_states.to(v_out.dtype)
        to_15: "f32[1, 8, 1, 64]" = torch.ops.aten.to.dtype(transpose_52, torch.float32);  transpose_52 = None
        
         # File: /home/nlong/execu-tools/transformers/src/transformers/cache_utils.py:1211 in update, code: k_out[:bz].index_copy_(2, cache_position, key_states)
        slice_72: "f32[1, 8, 20, 64]" = torch.ops.aten.slice.Tensor(b___cache_self_attention_cache_key_cache_2, 0, 0, 1)
        index_copy__8: "f32[1, 8, 20, 64]" = torch.ops.aten.index_copy_.default(slice_72, 2, sub, to_14);  slice_72 = to_14 = index_copy__8 = None
        
         # File: /home/nlong/execu-tools/transformers/src/transformers/cache_utils.py:1212 in update, code: v_out[:bz].index_copy_(2, cache_position, value_states)
        slice_73: "f32[1, 8, 20, 64]" = torch.ops.aten.slice.Tensor(b___cache_self_attention_cache_value_cache_2, 0, 0, 1)
        index_copy__9: "f32[1, 8, 20, 64]" = torch.ops.aten.index_copy_.default(slice_73, 2, sub, to_15);  slice_73 = to_15 = index_copy__9 = None
        
         # File: /home/nlong/execu-tools/transformers/src/transformers/models/marian/modeling_marian.py:224 in forward, code: key_states = key_states_full[:batch_size, :, :, :]
        slice_74: "f32[1, 8, 20, 64]" = torch.ops.aten.slice.Tensor(b___cache_self_attention_cache_key_cache_2, 1, 0, 9223372036854775807)
        slice_75: "f32[1, 8, 20, 64]" = torch.ops.aten.slice.Tensor(slice_74, 2, 0, 9223372036854775807);  slice_74 = None
        slice_76: "f32[1, 8, 20, 64]" = torch.ops.aten.slice.Tensor(slice_75, 3, 0, 9223372036854775807);  slice_75 = None
        
         # File: /home/nlong/execu-tools/transformers/src/transformers/models/marian/modeling_marian.py:225 in forward, code: value_states = value_states_full[:batch_size, :, :, :]
        slice_77: "f32[1, 8, 20, 64]" = torch.ops.aten.slice.Tensor(b___cache_self_attention_cache_value_cache_2, 1, 0, 9223372036854775807)
        slice_78: "f32[1, 8, 20, 64]" = torch.ops.aten.slice.Tensor(slice_77, 2, 0, 9223372036854775807);  slice_77 = None
        slice_79: "f32[1, 8, 20, 64]" = torch.ops.aten.slice.Tensor(slice_78, 3, 0, 9223372036854775807);  slice_78 = None
        
         # File: /home/nlong/execu-tools/transformers/src/transformers/models/marian/modeling_marian.py:227 in forward, code: attn_weights = torch.matmul(query_states, key_states.transpose(2, 3))
        transpose_53: "f32[1, 8, 64, 20]" = torch.ops.aten.transpose.int(slice_76, 2, 3);  slice_76 = None
        matmul_20: "f32[1, 8, 1, 20]" = torch.ops.aten.matmul.default(transpose_50, transpose_53);  transpose_50 = transpose_53 = None
        
         # File: /home/nlong/execu-tools/transformers/src/transformers/models/marian/modeling_marian.py:230 in forward, code: causal_mask = attention_mask[:, :, :, : key_states.shape[-2]]
        slice_80: "f32[1, 1, 1, 20]" = torch.ops.aten.slice.Tensor(expand_2, 0, 0, 9223372036854775807)
        slice_81: "f32[1, 1, 1, 20]" = torch.ops.aten.slice.Tensor(slice_80, 1, 0, 9223372036854775807);  slice_80 = None
        slice_82: "f32[1, 1, 1, 20]" = torch.ops.aten.slice.Tensor(slice_81, 2, 0, 9223372036854775807);  slice_81 = None
        
         # File: /home/nlong/execu-tools/transformers/src/transformers/models/marian/modeling_marian.py:231 in forward, code: attn_weights = attn_weights + causal_mask
…
         # File: /home/nlong/execu-tools/transformers/src/transformers/models/marian/modeling_marian.py:444 in forward, code: hidden_states = nn.functional.dropout(hidden_states, p=self.activation_dropout, training=self.training)
        dropout_751: "f32[1, 1, 2048]" = torch.ops.aten.dropout.default(silu_123, 0.0, False);  silu_123 = None
        
         # File: /home/nlong/execu-tools/transformers/src/transformers/models/marian/modeling_marian.py:445 in forward, code: hidden_states = self.fc2(hidden_states)
        linear_1010: "f32[1, 1, 512]" = torch.ops.aten.linear.default(dropout_751, p_model_model_decoder_layers_3_fc2_weight, p_model_model_decoder_layers_3_fc2_bias);  dropout_751 = p_model_model_decoder_layers_3_fc2_weight = p_model_model_decoder_layers_3_fc2_bias = None
        
         # File: /home/nlong/execu-tools/transformers/src/transformers/models/marian/modeling_marian.py:446 in forward, code: hidden_states = nn.functional.dropout(hidden_states, p=self.dropout, training=self.training)
        dropout_752: "f32[1, 1, 512]" = torch.ops.aten.dropout.default(linear_1010, 0.1, False);  linear_1010 = None
        
         # File: /home/nlong/execu-tools/transformers/src/transformers/models/marian/modeling_marian.py:447 in forward, code: hidden_states = residual + hidden_states
        add_705: "f32[1, 1, 512]" = torch.ops.aten.add.Tensor(layer_norm_364, dropout_752);  layer_norm_364 = dropout_752 = None
        
         # File: /home/nlong/execu-tools/transformers/src/transformers/models/marian/modeling_marian.py:448 in forward, code: hidden_states = self.final_layer_norm(hidden_states)
        layer_norm_365: "f32[1, 1, 512]" = torch.ops.aten.layer_norm.default(add_705, [512], p_model_model_decoder_layers_3_final_layer_norm_weight, p_model_model_decoder_layers_3_final_layer_norm_bias);  add_705 = p_model_model_decoder_layers_3_final_layer_norm_weight = p_model_model_decoder_layers_3_final_layer_norm_bias = None
        
         # File: /home/nlong/execu-tools/transformers/src/transformers/models/marian/modeling_marian.py:176 in forward, code: query_states = self._shape(self.q_proj(hidden_states) * self.scaling, tgt_len, bsz)
        linear_1011: "f32[1, 1, 512]" = torch.ops.aten.linear.default(layer_norm_365, p_model_model_decoder_layers_4_self_attn_q_proj_weight, p_model_model_decoder_layers_4_self_attn_q_proj_bias);  p_model_model_decoder_layers_4_self_attn_q_proj_weight = p_model_model_decoder_layers_4_self_attn_q_proj_bias = None
        mul_305: "f32[1, 1, 512]" = torch.ops.aten.mul.Tensor(linear_1011, 0.125);  linear_1011 = None
        
         # File: /home/nlong/execu-tools/transformers/src/transformers/models/marian/modeling_marian.py:155 in _shape, code: return tensor.view(bsz, seq_len, self.num_heads, self.head_dim).transpose(1, 2).contiguous()
        view_523: "f32[1, 1, 8, 64]" = torch.ops.aten.view.default(mul_305, [1, 1, 8, 64]);  mul_305 = None
        transpose_986: "f32[1, 8, 1, 64]" = torch.ops.aten.transpose.int(view_523, 1, 2);  view_523 = None
        
         # File: /home/nlong/execu-tools/transformers/src/transformers/models/marian/modeling_marian.py:202 in forward, code: key_states = self._shape(self.k_proj(current_states), -1, bsz)
        linear_1012: "f32[1, 1, 512]" = torch.ops.aten.linear.default(layer_norm_365, p_model_model_decoder_layers_4_self_attn_k_proj_weight, p_model_model_decoder_layers_4_self_attn_k_proj_bias);  p_model_model_decoder_layers_4_self_attn_k_proj_weight = p_model_model_decoder_layers_4_self_attn_k_proj_bias = None
        
         # File: /home/nlong/execu-tools/transformers/src/transformers/models/marian/modeling_marian.py:155 in _shape, code: return tensor.view(bsz, seq_len, self.num_heads, self.head_dim).transpose(1, 2).contiguous()
        view_524: "f32[1, 1, 8, 64]" = torch.ops.aten.view.default(linear_1012, [1, -1, 8, 64]);  linear_1012 = None
        transpose_987: "f32[1, 8, 1, 64]" = torch.ops.aten.transpose.int(view_524, 1, 2);  view_524 = None
        
         # File: /home/nlong/execu-tools/transformers/src/transformers/models/marian/modeling_marian.py:203 in forward, code: value_states = self._shape(self.v_proj(current_states), -1, bsz)
        linear_1013: "f32[1, 1, 512]" = torch.ops.aten.linear.default(layer_norm_365, p_model_model_decoder_layers_4_self_attn_v_proj_weight, p_model_model_decoder_layers_4_self_attn_v_proj_bias);  p_model_model_decoder_layers_4_self_attn_v_proj_weight = p_model_model_decoder_layers_4_self_attn_v_proj_bias = None
        
         # File: /home/nlong/execu-tools/transformers/src/transformers/models/marian/modeling_marian.py:155 in _shape, code: return tensor.view(bsz, seq_len, self.num_heads, self.head_dim).transpose(1, 2).contiguous()
        view_525: "f32[1, 1, 8, 64]" = torch.ops.aten.view.default(linear_1013, [1, -1, 8, 64]);  linear_1013 = None
        transpose_988: "f32[1, 8, 1, 64]" = torch.ops.aten.transpose.int(view_525, 1, 2);  view_525 = None
        
         # File: /home/nlong/execu-tools/transformers/src/transformers/cache_utils.py:1198 in update, code: key_states = key_states.to(k_out.dtype)
        to_369: "f32[1, 8, 1, 64]" = torch.ops.aten.to.dtype(transpose_987, torch.float32);  transpose_987 = None
        
         # File: /home/nlong/execu-tools/transformers/src/transformers/cache_utils.py:1199 in update, code: value_states = value_states.to(v_out.dtype)
        to_370: "f32[1, 8, 1, 64]" = torch.ops.aten.to.dtype(transpose_988, torch.float32);  transpose_988 = None
        
         # File: /home/nlong/execu-tools/transformers/src/transformers/cache_utils.py:1211 in update, code: k_out[:bz].index_copy_(2, cache_position, key_states)
        slice_2609: "f32[1, 8, 20, 64]" = torch.ops.aten.slice.Tensor(b___cache_self_attention_cache_key_cache_4, 0, 0, 1)
        index_copy__248: "f32[1, 8, 20, 64]" = torch.ops.aten.index_copy_.default(slice_2609, 2, add_682, to_369);  slice_2609 = to_369 = index_copy__248 = None
        
         # File: /home/nlong/execu-tools/transformers/src/transformers/cache_utils.py:1212 in update, code: v_out[:bz].index_copy_(2, cache_position, value_states)
        slice_2610: "f32[1, 8, 20, 64]" = torch.ops.aten.slice.Tensor(b___cache_self_attention_cache_value_cache_4, 0, 0, 1)
        index_copy__249: "f32[1, 8, 20, 64]" = torch.ops.aten.index_copy_.default(slice_2610, 2, add_682, to_370);  slice_2610 = to_370 = index_copy__249 = None
        
         # File: /home/nlong/execu-tools/transformers/src/transformers/models/marian/modeling_marian.py:224 in forward, code: key_states = key_states_full[:batch_size, :, :, :]
        slice_2611: "f32[1, 8, 20, 64]" = torch.ops.aten.slice.Tensor(b___cache_self_attention_cache_key_cache_4, 1, 0, 9223372036854775807);  b___cache_self_attention_cache_key_cache_4 = None
        slice_2612: "f32[1, 8, 20, 64]" = torch.ops.aten.slice.Tensor(slice_2611, 2, 0, 9223372036854775807);  slice_2611 = None
        slice_2613: "f32[1, 8, 20, 64]" = torch.ops.aten.slice.Tensor(slice_2612, 3, 0, 9223372036854775807);  slice_2612 = None
        
         # File: /home/nlong/execu-tools/transformers/src/transformers/models/marian/modeling_marian.py:225 in forward, code: value_states = value_states_full[:batch_size, :, :, :]
        slice_2614: "f32[1, 8, 20, 64]" = torch.ops.aten.slice.Tensor(b___cache_self_attention_cache_value_cache_4, 1, 0, 9223372036854775807);  b___cache_self_attention_cache_value_cache_4 = None
        slice_2615: "f32[1, 8, 20, 64]" = torch.ops.aten.slice.Tensor(slice_2614, 2, 0, 9223372036854775807);  slice_2614 = None
        slice_2616: "f32[1, 8, 20, 64]" = torch.ops.aten.slice.Tensor(slice_2615, 3, 0, 9223372036854775807);  slice_2615 = None
        
         # File: /home/nlong/execu-tools/transformers/src/transformers/models/marian/modeling_marian.py:227 in forward, code: attn_weights = torch.matmul(query_states, key_states.transpose(2, 3))
        transpose_989: "f32[1, 8, 64, 20]" = torch.ops.aten.transpose.int(slice_2613, 2, 3);  slice_2613 = None
        matmul_484: "f32[1, 8, 1, 20]" = torch.ops.aten.matmul.default(transpose_986, transpose_989);  transpose_986 = transpose_989 = None
        
         # File: /home/nlong/execu-tools/transformers/src/transformers/models/marian/modeling_marian.py:230 in forward, code: causal_mask = attention_mask[:, :, :, : key_states.shape[-2]]
        slice_2617: "f32[1, 1, 1, 20]" = torch.ops.aten.slice.Tensor(expand_40, 0, 0, 9223372036854775807)
        slice_2618: "f32[1, 1, 1, 20]" = torch.ops.aten.slice.Tensor(slice_2617, 1, 0, 9223372036854775807);  slice_2617 = None
        slice_2619: "f32[1, 1, 1, 20]" = torch.ops.aten.slice.Tensor(slice_2618, 2, 0, 9223372036854775807);  slice_2618 = None
        
         # File: /home/nlong/execu-tools/transformers/src/transformers/models/marian/modeling_marian.py:231 in forward, code: attn_weights = attn_weights + causal_mask
        add_706: "f32[1, 8, 1, 20]" = torch.ops.aten.add.Tensor(matmul_484, slice_2619);  matmul_484 = slice_2619 = None
        
         # File: /home/nlong/execu-tools/transformers/src/transformers/models/marian/modeling_marian.py:233 in forward, code: attn_weights = nn.functional.softmax(attn_weights, dim=-1)
        softmax_242: "f32[1, 8, 1, 20]" = torch.ops.aten.softmax.int(add_706, -1);  add_706 = None
        
         # File: /home/nlong/execu-tools/transformers/src/transformers/models/marian/modeling_marian.py:243 in forward, code: attn_probs = nn.functional.dropout(attn_weights, p=self.dropout, training=self.training)
        dropout_753: "f32[1, 8, 1, 20]" = torch.ops.aten.dropout.default(softmax_242, 0.0, False);  softmax_242 = None
        
         # File: /home/nlong/execu-tools/transformers/src/transformers/models/marian/modeling_marian.py:244 in forward, code: attn_output = torch.matmul(attn_probs, value_states)
        matmul_485: "f32[1, 8, 1, 64]" = torch.ops.aten.matmul.default(dropout_753, slice_2616);  dropout_753 = slice_2616 = None
        
         # File: /home/nlong/execu-tools/transformers/src/transformers/models/marian/modeling_marian.py:252 in forward, code: attn_output = attn_output.transpose(1, 2)
        transpose_990: "f32[1, 1, 8, 64]" = torch.ops.aten.transpose.int(matmul_485, 1, 2);  matmul_485 = None
        
         # File: /home/nlong/execu-tools/transformers/src/transformers/models/marian/modeling_marian.py:255 in forward, code: attn_output = attn_output.reshape(bsz, tgt_len, self.embed_dim)
        reshape_262: "f32[1, 1, 512]" = torch.ops.aten.reshape.default(transpose_990, [1, 1, 512]);  transpose_990 = None
        
         # File: /home/nlong/execu-tools/transformers/src/transformers/models/marian/modeling_marian.py:257 in forward, code: attn_output = self.out_proj(attn_output)
        linear_1014: "f32[1, 1, 512]" = torch.ops.aten.linear.default(reshape_262, p_model_model_decoder_layers_4_self_attn_out_proj_weight, p_model_model_decoder_layers_4_self_attn_out_proj_bias);  reshape_262 = p_model_model_decoder_layers_4_self_attn_out_proj_weight = p_model_model_decoder_layers_4_self_attn_out_proj_bias = None
        
         # File: /home/nlong/execu-tools/transformers/src/transformers/models/marian/modeling_marian.py:414 in forward, code: hidden_states = nn.functional.dropout(hidden_states, p=self.dropout, training=self.training)
        dropout_754: "f32[1, 1, 512]" = torch.ops.aten.dropout.default(linear_1014, 0.1, False);  linear_1014 = None
        
         # File: /home/nlong/execu-tools/transformers/src/transformers/models/marian/modeling_marian.py:415 in forward, code: hidden_states = residual + hidden_states
        add_707: "f32[1, 1, 512]" = torch.ops.aten.add.Tensor(layer_norm_365, dropout_754);  layer_norm_365 = dropout_754 = None
        
         # File: /home/nlong/execu-tools/transformers/src/transformers/models/marian/modeling_marian.py:416 in forward, code: hidden_states = self.self_attn_layer_norm(hidden_states)
        layer_norm_366: "f32[1, 1, 512]" = torch.ops.aten.layer_norm.default(add_707, [512], p_model_model_decoder_layers_4_self_attn_layer_norm_weight, p_model_model_decoder_layers_4_self_attn_layer_norm_bias);  add_707 = p_model_model_decoder_layers_4_self_attn_layer_norm_weight = p_model_model_decoder_layers_4_self_attn_layer_norm_bias = None
        
         # File: /home/nlong/execu-tools/transformers/src/transformers/models/marian/modeling_marian.py:176 in forward, code: query_states = self._shape(self.q_proj(hidden_states) * self.scaling, tgt_len, bsz)
        linear_1015: "f32[1, 1, 512]" = torch.ops.aten.linear.default(layer_norm_366, p_model_model_decoder_layers_4_encoder_attn_q_proj_weight, p_model_model_decoder_layers_4_encoder_attn_q_proj_bias);  p_model_model_decoder_layers_4_encoder_attn_q_proj_weight = p_model_model_decoder_layers_4_encoder_attn_q_proj_bias = None
        mul_306: "f32[1, 1, 512]" = torch.ops.aten.mul.Tensor(linear_1015, 0.125);  linear_1015 = None
        
         # File: /home/nlong/execu-tools/transformers/src/transformers/models/marian/modeling_marian.py:155 in _shape, code: return tensor.view(bsz, seq_len, self.num_heads, self.head_dim).transpose(1, 2).contiguous()
        view_526: "f32[1, 1, 8, 64]" = torch.ops.aten.view.default(mul_306, [1, 1, 8, 64]);  mul_306 = None
        transpose_991: "f32[1, 8, 1, 64]" = torch.ops.aten.transpose.int(view_526, 1, 2);  view_526 = None
        
         # File: /home/nlong/execu-tools/transformers/src/transformers/models/marian/modeling_marian.py:199 in forward, code: key_states = key_states_full[:batch_size, :, :cross_seq_length, :]
        slice_2620: "f32[1, 8, 40, 64]" = torch.ops.aten.slice.Tensor(b___cache_cross_attention_cache_key_cache_4, 1, 0, 9223372036854775807);  b___cache_cross_attention_cache_key_cache_4 = None
        slice_2621: "f32[1, 8, 23, 64]" = torch.ops.aten.slice.Tensor(slice_2620, 2, 0, 23);  slice_2620 = None
        slice_2622: "f32[1, 8, 23, 64]" = torch.ops.aten.slice.Tensor(slice_2621, 3, 0, 9223372036854775807);  slice_2621 = None
        
         # File: /home/nlong/execu-tools/transformers/src/transformers/models/marian/modeling_marian.py:200 in forward, code: value_states = value_states_full[:batch_size, :, :cross_seq_length, :]
        slice_2623: "f32[1, 8, 40, 64]" = torch.ops.aten.slice.Tensor(b___cache_cross_attention_cache_value_cache_4, 1, 0, 9223372036854775807);  b___cache_cross_attention_cache_value_cache_4 = None
        slice_2624: "f32[1, 8, 23, 64]" = torch.ops.aten.slice.Tensor(slice_2623, 2, 0, 23);  slice_2623 = None
        slice_2625: "f32[1, 8, 23, 64]" = torch.ops.aten.slice.Tensor(slice_2624, 3, 0, 9223372036854775807);  slice_2624 = None
        
         # File: /home/nlong/execu-tools/transformers/src/transformers/models/marian/modeling_marian.py:227 in forward, code: attn_weights = torch.matmul(query_states, key_states.transpose(2, 3))
        transpose_992: "f32[1, 8, 64, 23]" = torch.ops.aten.transpose.int(slice_2622, 2, 3);  slice_2622 = None
        matmul_486: "f32[1, 8, 1, 23]" = torch.ops.aten.matmul.default(transpose_991, transpose_992);  transpose_991 = transpose_992 = None
        
         # File: /home/nlong/execu-tools/transformers/src/transformers/models/marian/modeling_marian.py:230 in forward, code: causal_mask = attention_mask[:, :, :, : key_states.shape[-2]]
        slice_2626: "f32[1, 1, 1, 23]" = torch.ops.aten.slice.Tensor(masked_fill_20, 0, 0, 9223372036854775807)
        slice_2627: "f32[1, 1, 1, 23]" = torch.ops.aten.slice.Tensor(slice_2626, 1, 0, 9223372036854775807);  slice_2626 = None
        slice_2628: "f32[1, 1, 1, 23]" = torch.ops.aten.slice.Tensor(slice_2627, 2, 0, 9223372036854775807);  slice_2627 = None
        
         # File: /home/nlong/execu-tools/transformers/src/transformers/models/marian/modeling_marian.py:231 in forward, code: attn_weights = attn_weights + causal_mask
        add_708: "f32[1, 8, 1, 23]" = torch.ops.aten.add.Tensor(matmul_486, slice_2628);  matmul_486 = slice_2628 = None
        
         # File: /home/nlong/execu-tools/transformers/src/transformers/models/marian/modeling_marian.py:233 in forward, code: attn_weights = nn.functional.softmax(attn_weights, dim=-1)
        softmax_243: "f32[1, 8, 1, 23]" = torch.ops.aten.softmax.int(add_708, -1);  add_708 = None
        
         # File: /home/nlong/execu-tools/transformers/src/transformers/models/marian/modeling_marian.py:243 in forward, code: attn_probs = nn.functional.dropout(attn_weights, p=self.dropout, training=self.training)
        dropout_755: "f32[1, 8, 1, 23]" = torch.ops.aten.dropout.default(softmax_243, 0.0, False);  softmax_243 = None
        
         # File: /home/nlong/execu-tools/transformers/src/transformers/models/marian/modeling_marian.py:244 in forward, code: attn_output = torch.matmul(attn_probs, value_states)
        matmul_487: "f32[1, 8, 1, 64]" = torch.ops.aten.matmul.default(dropout_755, slice_2625);  dropout_755 = slice_2625 = None
        
         # File: /home/nlong/execu-tools/transformers/src/transformers/models/marian/modeling_marian.py:252 in forward, code: attn_output = attn_output.transpose(1, 2)
        transpose_993: "f32[1, 1, 8, 64]" = torch.ops.aten.transpose.int(matmul_487, 1, 2);  matmul_487 = None
        
         # File: /home/nlong/execu-tools/transformers/src/transformers/models/marian/modeling_marian.py:255 in forward, code: attn_output = attn_output.reshape(bsz, tgt_len, self.embed_dim)
        reshape_263: "f32[1, 1, 512]" = torch.ops.aten.reshape.default(transpose_993, [1, 1, 512]);  transpose_993 = None
        
         # File: /home/nlong/execu-tools/transformers/src/transformers/models/marian/modeling_marian.py:257 in forward, code: attn_output = self.out_proj(attn_output)
        linear_1016: "f32[1, 1, 512]" = torch.ops.aten.linear.default(reshape_263, p_model_model_decoder_layers_4_encoder_attn_out_proj_weight, p_model_model_decoder_layers_4_encoder_attn_out_proj_bias);  reshape_263 = p_model_model_decoder_layers_4_encoder_attn_out_proj_weight = p_model_model_decoder_layers_4_encoder_attn_out_proj_bias = None
        
         # File: /home/nlong/execu-tools/transformers/src/transformers/models/marian/modeling_marian.py:434 in forward, code: hidden_states = nn.functional.dropout(hidden_states, p=self.dropout, training=self.training)
        dropout_756: "f32[1, 1, 512]" = torch.ops.aten.dropout.default(linear_1016, 0.1, False);  linear_1016 = None
        
         # File: /home/nlong/execu-tools/transformers/src/transformers/models/marian/modeling_marian.py:435 in forward, code: hidden_states = residual + hidden_states
        add_709: "f32[1, 1, 512]" = torch.ops.aten.add.Tensor(layer_norm_366, dropout_756);  layer_norm_366 = dropout_756 = None
        
         # File: /home/nlong/execu-tools/transformers/src/transformers/models/marian/modeling_marian.py:436 in forward, code: hidden_states = self.encoder_attn_layer_norm(hidden_states)
        layer_norm_367: "f32[1, 1, 512]" = torch.ops.aten.layer_norm.default(add_709, [512], p_model_model_decoder_layers_4_encoder_attn_layer_norm_weight, p_model_model_decoder_layers_4_encoder_attn_layer_norm_bias);  add_709 = p_model_model_decoder_layers_4_encoder_attn_layer_norm_weight = p_model_model_decoder_layers_4_encoder_attn_layer_norm_bias = None
        
         # File: /home/nlong/execu-tools/transformers/src/transformers/models/marian/modeling_marian.py:443 in forward, code: hidden_states = self.activation_fn(self.fc1(hidden_states))
        linear_1017: "f32[1, 1, 2048]" = torch.ops.aten.linear.default(layer_norm_367, p_model_model_decoder_layers_4_fc1_weight, p_model_model_decoder_layers_4_fc1_bias);  p_model_model_decoder_layers_4_fc1_weight = p_model_model_decoder_layers_4_fc1_bias = None
        silu_124: "f32[1, 1, 2048]" = torch.ops.aten.silu.default(linear_1017);  linear_1017 = None
        
         # File: /home/nlong/execu-tools/transformers/src/transformers/models/marian/modeling_marian.py:444 in forward, code: hidden_states = nn.functional.dropout(hidden_states, p=self.activation_dropout, training=self.training)
        dropout_757: "f32[1, 1, 2048]" = torch.ops.aten.dropout.default(silu_124, 0.0, False);  silu_124 = None
        
         # File: /home/nlong/execu-tools/transformers/src/transformers/models/marian/modeling_marian.py:445 in forward, code: hidden_states = self.fc2(hidden_states)
        linear_1018: "f32[1, 1, 512]" = torch.ops.aten.linear.default(dropout_757, p_model_model_decoder_layers_4_fc2_weight, p_model_model_decoder_layers_4_fc2_bias);  dropout_757 = p_model_model_decoder_layers_4_fc2_weight = p_model_model_decoder_layers_4_fc2_bias = None
        
         # File: /home/nlong/execu-tools/transformers/src/transformers/models/marian/modeling_marian.py:446 in forward, code: hidden_states = nn.functional.dropout(hidden_states, p=self.dropout, training=self.training)
        dropout_758: "f32[1, 1, 512]" = torch.ops.aten.dropout.default(linear_1018, 0.1, False);  linear_1018 = None
        
         # File: /home/nlong/execu-tools/transformers/src/transformers/models/marian/modeling_marian.py:447 in forward, code: hidden_states = residual + hidden_states
        add_710: "f32[1, 1, 512]" = torch.ops.aten.add.Tensor(layer_norm_367, dropout_758);  layer_norm_367 = dropout_758 = None
        
         # File: /home/nlong/execu-tools/transformers/src/transformers/models/marian/modeling_marian.py:448 in forward, code: hidden_states = self.final_layer_norm(hidden_states)
        layer_norm_368: "f32[1, 1, 512]" = torch.ops.aten.layer_norm.default(add_710, [512], p_model_model_decoder_layers_4_final_layer_norm_weight, p_model_model_decoder_layers_4_final_layer_norm_bias);  add_710 = p_model_model_decoder_layers_4_final_layer_norm_weight = p_model_model_decoder_layers_4_final_layer_norm_bias = None
        
         # File: /home/nlong/execu-tools/transformers/src/transformers/models/marian/modeling_marian.py:176 in forward, code: query_states = self._shape(self.q_proj(hidden_states) * self.scaling, tgt_len, bsz)
        linear_1019: "f32[1, 1, 512]" = torch.ops.aten.linear.default(layer_norm_368, p_model_model_decoder_layers_5_self_attn_q_proj_weight, p_model_model_decoder_layers_5_self_attn_q_proj_bias);  p_model_model_decoder_layers_5_self_attn_q_proj_weight = p_model_model_decoder_layers_5_self_attn_q_proj_bias = None
        mul_307: "f32[1, 1, 512]" = torch.ops.aten.mul.Tensor(linear_1019, 0.125);  linear_1019 = None
        
         # File: /home/nlong/execu-tools/transformers/src/transformers/models/marian/modeling_marian.py:155 in _shape, code: return tensor.view(bsz, seq_len, self.num_heads, self.head_dim).transpose(1, 2).contiguous()
        view_527: "f32[1, 1, 8, 64]" = torch.ops.aten.view.default(mul_307, [1, 1, 8, 64]);  mul_307 = None
        transpose_994: "f32[1, 8, 1, 64]" = torch.ops.aten.transpose.int(view_527, 1, 2);  view_527 = None
        
         # File: /home/nlong/execu-tools/transformers/src/transformers/models/marian/modeling_marian.py:202 in forward, code: key_states = self._shape(self.k_proj(current_states), -1, bsz)
        linear_1020: "f32[1, 1, 512]" = torch.ops.aten.linear.default(layer_norm_368, p_model_model_decoder_layers_5_self_attn_k_proj_weight, p_model_model_decoder_layers_5_self_attn_k_proj_bias);  p_model_model_decoder_layers_5_self_attn_k_proj_weight = p_model_model_decoder_layers_5_self_attn_k_proj_bias = None
        
         # File: /home/nlong/execu-tools/transformers/src/transformers/models/marian/modeling_marian.py:155 in _shape, code: return tensor.view(bsz, seq_len, self.num_heads, self.head_dim).transpose(1, 2).contiguous()
        view_528: "f32[1, 1, 8, 64]" = torch.ops.aten.view.default(linear_1020, [1, -1, 8, 64]);  linear_1020 = None
        transpose_995: "f32[1, 8, 1, 64]" = torch.ops.aten.transpose.int(view_528, 1, 2);  view_528 = None
        
         # File: /home/nlong/execu-tools/transformers/src/transformers/models/marian/modeling_marian.py:203 in forward, code: value_states = self._shape(self.v_proj(current_states), -1, bsz)
        linear_1021: "f32[1, 1, 512]" = torch.ops.aten.linear.default(layer_norm_368, p_model_model_decoder_layers_5_self_attn_v_proj_weight, p_model_model_decoder_layers_5_self_attn_v_proj_bias);  p_model_model_decoder_layers_5_self_attn_v_proj_weight = p_model_model_decoder_layers_5_self_attn_v_proj_bias = None
        
         # File: /home/nlong/execu-tools/transformers/src/transformers/models/marian/modeling_marian.py:155 in _shape, code: return tensor.view(bsz, seq_len, self.num_heads, self.head_dim).transpose(1, 2).contiguous()
        view_529: "f32[1, 1, 8, 64]" = torch.ops.aten.view.default(linear_1021, [1, -1, 8, 64]);  linear_1021 = None
        transpose_996: "f32[1, 8, 1, 64]" = torch.ops.aten.transpose.int(view_529, 1, 2);  view_529 = None
        
         # File: /home/nlong/execu-tools/transformers/src/transformers/cache_utils.py:1198 in update, code: key_states = key_states.to(k_out.dtype)
        to_371: "f32[1, 8, 1, 64]" = torch.ops.aten.to.dtype(transpose_995, torch.float32);  transpose_995 = None
        
         # File: /home/nlong/execu-tools/transformers/src/transformers/cache_utils.py:1199 in update, code: value_states = value_states.to(v_out.dtype)
        to_372: "f32[1, 8, 1, 64]" = torch.ops.aten.to.dtype(transpose_996, torch.float32);  transpose_996 = None
        
         # File: /home/nlong/execu-tools/transformers/src/transformers/cache_utils.py:1211 in update, code: k_out[:bz].index_copy_(2, cache_position, key_states)
        slice_2629: "f32[1, 8, 20, 64]" = torch.ops.aten.slice.Tensor(b___cache_self_attention_cache_key_cache_5, 0, 0, 1)
        index_copy__250: "f32[1, 8, 20, 64]" = torch.ops.aten.index_copy_.default(slice_2629, 2, add_682, to_371);  slice_2629 = to_371 = index_copy__250 = None
        
         # File: /home/nlong/execu-tools/transformers/src/transformers/cache_utils.py:1212 in update, code: v_out[:bz].index_copy_(2, cache_position, value_states)
        slice_2630: "f32[1, 8, 20, 64]" = torch.ops.aten.slice.Tensor(b___cache_self_attention_cache_value_cache_5, 0, 0, 1)
        index_copy__251: "f32[1, 8, 20, 64]" = torch.ops.aten.index_copy_.default(slice_2630, 2, add_682, to_372);  slice_2630 = to_372 = index_copy__251 = None
        
         # File: /home/nlong/execu-tools/transformers/src/transformers/models/marian/modeling_marian.py:224 in forward, code: key_states = key_states_full[:batch_size, :, :, :]
        slice_2631: "f32[1, 8, 20, 64]" = torch.ops.aten.slice.Tensor(b___cache_self_attention_cache_key_cache_5, 1, 0, 9223372036854775807);  b___cache_self_attention_cache_key_cache_5 = None
        slice_2632: "f32[1, 8, 20, 64]" = torch.ops.aten.slice.Tensor(slice_2631, 2, 0, 9223372036854775807);  slice_2631 = None
        slice_2633: "f32[1, 8, 20, 64]" = torch.ops.aten.slice.Tensor(slice_2632, 3, 0, 9223372036854775807);  slice_2632 = None
        
         # File: /home/nlong/execu-tools/transformers/src/transformers/models/marian/modeling_marian.py:225 in forward, code: value_states = value_states_full[:batch_size, :, :, :]
        slice_2634: "f32[1, 8, 20, 64]" = torch.ops.aten.slice.Tensor(b___cache_self_attention_cache_value_cache_5, 1, 0, 9223372036854775807);  b___cache_self_attention_cache_value_cache_5 = None
        slice_2635: "f32[1, 8, 20, 64]" = torch.ops.aten.slice.Tensor(slice_2634, 2, 0, 9223372036854775807);  slice_2634 = None
        slice_2636: "f32[1, 8, 20, 64]" = torch.ops.aten.slice.Tensor(slice_2635, 3, 0, 9223372036854775807);  slice_2635 = None
        
         # File: /home/nlong/execu-tools/transformers/src/transformers/models/marian/modeling_marian.py:227 in forward, code: attn_weights = torch.matmul(query_states, key_states.transpose(2, 3))
        transpose_997: "f32[1, 8, 64, 20]" = torch.ops.aten.transpose.int(slice_2633, 2, 3);  slice_2633 = None
        matmul_488: "f32[1, 8, 1, 20]" = torch.ops.aten.matmul.default(transpose_994, transpose_997);  transpose_994 = transpose_997 = None
        
         # File: /home/nlong/execu-tools/transformers/src/transformers/models/marian/modeling_marian.py:230 in forward, code: causal_mask = attention_mask[:, :, :, : key_states.shape[-2]]
        slice_2637: "f32[1, 1, 1, 20]" = torch.ops.aten.slice.Tensor(expand_40, 0, 0, 9223372036854775807);  expand_40 = None
        slice_2638: "f32[1, 1, 1, 20]" = torch.ops.aten.slice.Tensor(slice_2637, 1, 0, 9223372036854775807);  slice_2637 = None
        slice_2639: "f32[1, 1, 1, 20]" = torch.ops.aten.slice.Tensor(slice_2638, 2, 0, 9223372036854775807);  slice_2638 = None
        
         # File: /home/nlong/execu-tools/transformers/src/transformers/models/marian/modeling_marian.py:231 in forward, code: attn_weights = attn_weights + causal_mask
        add_711: "f32[1, 8, 1, 20]" = torch.ops.aten.add.Tensor(matmul_488, slice_2639);  matmul_488 = slice_2639 = None
        
         # File: /home/nlong/execu-tools/transformers/src/transformers/models/marian/modeling_marian.py:233 in forward, code: attn_weights = nn.functional.softmax(attn_weights, dim=-1)
        softmax_244: "f32[1, 8, 1, 20]" = torch.ops.aten.softmax.int(add_711, -1);  add_711 = None
        
         # File: /home/nlong/execu-tools/transformers/src/transformers/models/marian/modeling_marian.py:243 in forward, code: attn_probs = nn.functional.dropout(attn_weights, p=self.dropout, training=self.training)
        dropout_759: "f32[1, 8, 1, 20]" = torch.ops.aten.dropout.default(softmax_244, 0.0, False);  softmax_244 = None
        
         # File: /home/nlong/execu-tools/transformers/src/transformers/models/marian/modeling_marian.py:244 in forward, code: attn_output = torch.matmul(attn_probs, value_states)
        matmul_489: "f32[1, 8, 1, 64]" = torch.ops.aten.matmul.default(dropout_759, slice_2636);  dropout_759 = slice_2636 = None
        
         # File: /home/nlong/execu-tools/transformers/src/transformers/models/marian/modeling_marian.py:252 in forward, code: attn_output = attn_output.transpose(1, 2)
        transpose_998: "f32[1, 1, 8, 64]" = torch.ops.aten.transpose.int(matmul_489, 1, 2);  matmul_489 = None
        
         # File: /home/nlong/execu-tools/transformers/src/transformers/models/marian/modeling_marian.py:255 in forward, code: attn_output = attn_output.reshape(bsz, tgt_len, self.embed_dim)
        reshape_264: "f32[1, 1, 512]" = torch.ops.aten.reshape.default(transpose_998, [1, 1, 512]);  transpose_998 = None
        
         # File: /home/nlong/execu-tools/transformers/src/transformers/models/marian/modeling_marian.py:257 in forward, code: attn_output = self.out_proj(attn_output)
        linear_1022: "f32[1, 1, 512]" = torch.ops.aten.linear.default(reshape_264, p_model_model_decoder_layers_5_self_attn_out_proj_weight, p_model_model_decoder_layers_5_self_attn_out_proj_bias);  reshape_264 = p_model_model_decoder_layers_5_self_attn_out_proj_weight = p_model_model_decoder_layers_5_self_attn_out_proj_bias = None
        
         # File: /home/nlong/execu-tools/transformers/src/transformers/models/marian/modeling_marian.py:414 in forward, code: hidden_states = nn.functional.dropout(hidden_states, p=self.dropout, training=self.training)
        dropout_760: "f32[1, 1, 512]" = torch.ops.aten.dropout.default(linear_1022, 0.1, False);  linear_1022 = None
        
         # File: /home/nlong/execu-tools/transformers/src/transformers/models/marian/modeling_marian.py:415 in forward, code: hidden_states = residual + hidden_states
        add_712: "f32[1, 1, 512]" = torch.ops.aten.add.Tensor(layer_norm_368, dropout_760);  layer_norm_368 = dropout_760 = None
        
         # File: /home/nlong/execu-tools/transformers/src/transformers/models/marian/modeling_marian.py:416 in forward, code: hidden_states = self.self_attn_layer_norm(hidden_states)
        layer_norm_369: "f32[1, 1, 512]" = torch.ops.aten.layer_norm.default(add_712, [512], p_model_model_decoder_layers_5_self_attn_layer_norm_weight, p_model_model_decoder_layers_5_self_attn_layer_norm_bias);  add_712 = p_model_model_decoder_layers_5_self_attn_layer_norm_weight = p_model_model_decoder_layers_5_self_attn_layer_norm_bias = None
        
         # File: /home/nlong/execu-tools/transformers/src/transformers/models/marian/modeling_marian.py:176 in forward, code: query_states = self._shape(self.q_proj(hidden_states) * self.scaling, tgt_len, bsz)
        linear_1023: "f32[1, 1, 512]" = torch.ops.aten.linear.default(layer_norm_369, p_model_model_decoder_layers_5_encoder_attn_q_proj_weight, p_model_model_decoder_layers_5_encoder_attn_q_proj_bias);  p_model_model_decoder_layers_5_encoder_attn_q_proj_weight = p_model_model_decoder_layers_5_encoder_attn_q_proj_bias = None
        mul_308: "f32[1, 1, 512]" = torch.ops.aten.mul.Tensor(linear_1023, 0.125);  linear_1023 = None
        
         # File: /home/nlong/execu-tools/transformers/src/transformers/models/marian/modeling_marian.py:155 in _shape, code: return tensor.view(bsz, seq_len, self.num_heads, self.head_dim).transpose(1, 2).contiguous()
        view_530: "f32[1, 1, 8, 64]" = torch.ops.aten.view.default(mul_308, [1, 1, 8, 64]);  mul_308 = None
        transpose_999: "f32[1, 8, 1, 64]" = torch.ops.aten.transpose.int(view_530, 1, 2);  view_530 = None
        
         # File: /home/nlong/execu-tools/transformers/src/transformers/models/marian/modeling_marian.py:199 in forward, code: key_states = key_states_full[:batch_size, :, :cross_seq_length, :]
        slice_2640: "f32[1, 8, 40, 64]" = torch.ops.aten.slice.Tensor(b___cache_cross_attention_cache_key_cache_5, 1, 0, 9223372036854775807);  b___cache_cross_attention_cache_key_cache_5 = None
        slice_2641: "f32[1, 8, 23, 64]" = torch.ops.aten.slice.Tensor(slice_2640, 2, 0, 23);  slice_2640 = None
        slice_2642: "f32[1, 8, 23, 64]" = torch.ops.aten.slice.Tensor(slice_2641, 3, 0, 9223372036854775807);  slice_2641 = None
        
         # File: /home/nlong/execu-tools/transformers/src/transformers/models/marian/modeling_marian.py:200 in forward, code: value_states = value_states_full[:batch_size, :, :cross_seq_length, :]
        slice_2643: "f32[1, 8, 40, 64]" = torch.ops.aten.slice.Tensor(b___cache_cross_attention_cache_value_cache_5, 1, 0, 9223372036854775807);  b___cache_cross_attention_cache_value_cache_5 = None
        slice_2644: "f32[1, 8, 23, 64]" = torch.ops.aten.slice.Tensor(slice_2643, 2, 0, 23);  slice_2643 = None
        slice_2645: "f32[1, 8, 23, 64]" = torch.ops.aten.slice.Tensor(slice_2644, 3, 0, 9223372036854775807);  slice_2644 = None
        
         # File: /home/nlong/execu-tools/transformers/src/transformers/models/marian/modeling_marian.py:227 in forward, code: attn_weights = torch.matmul(query_states, key_states.transpose(2, 3))
        transpose_1000: "f32[1, 8, 64, 23]" = torch.ops.aten.transpose.int(slice_2642, 2, 3);  slice_2642 = None
        matmul_490: "f32[1, 8, 1, 23]" = torch.ops.aten.matmul.default(transpose_999, transpose_1000);  transpose_999 = transpose_1000 = None
        
         # File: /home/nlong/execu-tools/transformers/src/transformers/models/marian/modeling_marian.py:230 in forward, code: causal_mask = attention_mask[:, :, :, : key_states.shape[-2]]
        slice_2646: "f32[1, 1, 1, 23]" = torch.ops.aten.slice.Tensor(masked_fill_20, 0, 0, 9223372036854775807);  masked_fill_20 = None
        slice_2647: "f32[1, 1, 1, 23]" = torch.ops.aten.slice.Tensor(slice_2646, 1, 0, 9223372036854775807);  slice_2646 = None
        slice_2648: "f32[1, 1, 1, 23]" = torch.ops.aten.slice.Tensor(slice_2647, 2, 0, 9223372036854775807);  slice_2647 = None
        
         # File: /home/nlong/execu-tools/transformers/src/transformers/models/marian/modeling_marian.py:231 in forward, code: attn_weights = attn_weights + causal_mask
        add_713: "f32[1, 8, 1, 23]" = torch.ops.aten.add.Tensor(matmul_490, slice_2648);  matmul_490 = slice_2648 = None
        
         # File: /home/nlong/execu-tools/transformers/src/transformers/models/marian/modeling_marian.py:233 in forward, code: attn_weights = nn.functional.softmax(attn_weights, dim=-1)
        softmax_245: "f32[1, 8, 1, 23]" = torch.ops.aten.softmax.int(add_713, -1);  add_713 = None
        
         # File: /home/nlong/execu-tools/transformers/src/transformers/models/marian/modeling_marian.py:243 in forward, code: attn_probs = nn.functional.dropout(attn_weights, p=self.dropout, training=self.training)
        dropout_761: "f32[1, 8, 1, 23]" = torch.ops.aten.dropout.default(softmax_245, 0.0, False);  softmax_245 = None
        
         # File: /home/nlong/execu-tools/transformers/src/transformers/models/marian/modeling_marian.py:244 in forward, code: attn_output = torch.matmul(attn_probs, value_states)
        matmul_491: "f32[1, 8, 1, 64]" = torch.ops.aten.matmul.default(dropout_761, slice_2645);  dropout_761 = slice_2645 = None
        
         # File: /home/nlong/execu-tools/transformers/src/transformers/models/marian/modeling_marian.py:252 in forward, code: attn_output = attn_output.transpose(1, 2)
        transpose_1001: "f32[1, 1, 8, 64]" = torch.ops.aten.transpose.int(matmul_491, 1, 2);  matmul_491 = None
        
         # File: /home/nlong/execu-tools/transformers/src/transformers/models/marian/modeling_marian.py:255 in forward, code: attn_output = attn_output.reshape(bsz, tgt_len, self.embed_dim)
        reshape_265: "f32[1, 1, 512]" = torch.ops.aten.reshape.default(transpose_1001, [1, 1, 512]);  transpose_1001 = None
        
         # File: /home/nlong/execu-tools/transformers/src/transformers/models/marian/modeling_marian.py:257 in forward, code: attn_output = self.out_proj(attn_output)
        linear_1024: "f32[1, 1, 512]" = torch.ops.aten.linear.default(reshape_265, p_model_model_decoder_layers_5_encoder_attn_out_proj_weight, p_model_model_decoder_layers_5_encoder_attn_out_proj_bias);  reshape_265 = p_model_model_decoder_layers_5_encoder_attn_out_proj_weight = p_model_model_decoder_layers_5_encoder_attn_out_proj_bias = None
        
         # File: /home/nlong/execu-tools/transformers/src/transformers/models/marian/modeling_marian.py:434 in forward, code: hidden_states = nn.functional.dropout(hidden_states, p=self.dropout, training=self.training)
        dropout_762: "f32[1, 1, 512]" = torch.ops.aten.dropout.default(linear_1024, 0.1, False);  linear_1024 = None
        
         # File: /home/nlong/execu-tools/transformers/src/transformers/models/marian/modeling_marian.py:435 in forward, code: hidden_states = residual + hidden_states
        add_714: "f32[1, 1, 512]" = torch.ops.aten.add.Tensor(layer_norm_369, dropout_762);  layer_norm_369 = dropout_762 = None
        
         # File: /home/nlong/execu-tools/transformers/src/transformers/models/marian/modeling_marian.py:436 in forward, code: hidden_states = self.encoder_attn_layer_norm(hidden_states)
        layer_norm_370: "f32[1, 1, 512]" = torch.ops.aten.layer_norm.default(add_714, [512], p_model_model_decoder_layers_5_encoder_attn_layer_norm_weight, p_model_model_decoder_layers_5_encoder_attn_layer_norm_bias);  add_714 = p_model_model_decoder_layers_5_encoder_attn_layer_norm_weight = p_model_model_decoder_layers_5_encoder_attn_layer_norm_bias = None
        
         # File: /home/nlong/execu-tools/transformers/src/transformers/models/marian/modeling_marian.py:443 in forward, code: hidden_states = self.activation_fn(self.fc1(hidden_states))
        linear_1025: "f32[1, 1, 2048]" = torch.ops.aten.linear.default(layer_norm_370, p_model_model_decoder_layers_5_fc1_weight, p_model_model_decoder_layers_5_fc1_bias);  p_model_model_decoder_layers_5_fc1_weight = p_model_model_decoder_layers_5_fc1_bias = None
        silu_125: "f32[1, 1, 2048]" = torch.ops.aten.silu.default(linear_1025);  linear_1025 = None
        
         # File: /home/nlong/execu-tools/transformers/src/transformers/models/marian/modeling_marian.py:444 in forward, code: hidden_states = nn.functional.dropout(hidden_states, p=self.activation_dropout, training=self.training)
        dropout_763: "f32[1, 1, 2048]" = torch.ops.aten.dropout.default(silu_125, 0.0, False);  silu_125 = None
        
         # File: /home/nlong/execu-tools/transformers/src/transformers/models/marian/modeling_marian.py:445 in forward, code: hidden_states = self.fc2(hidden_states)
        linear_1026: "f32[1, 1, 512]" = torch.ops.aten.linear.default(dropout_763, p_model_model_decoder_layers_5_fc2_weight, p_model_model_decoder_layers_5_fc2_bias);  dropout_763 = p_model_model_decoder_layers_5_fc2_weight = p_model_model_decoder_layers_5_fc2_bias = None
        
         # File: /home/nlong/execu-tools/transformers/src/transformers/models/marian/modeling_marian.py:446 in forward, code: hidden_states = nn.functional.dropout(hidden_states, p=self.dropout, training=self.training)
        dropout_764: "f32[1, 1, 512]" = torch.ops.aten.dropout.default(linear_1026, 0.1, False);  linear_1026 = None
        
         # File: /home/nlong/execu-tools/transformers/src/transformers/models/marian/modeling_marian.py:447 in forward, code: hidden_states = residual + hidden_states
        add_715: "f32[1, 1, 512]" = torch.ops.aten.add.Tensor(layer_norm_370, dropout_764);  layer_norm_370 = dropout_764 = None
        
         # File: /home/nlong/execu-tools/transformers/src/transformers/models/marian/modeling_marian.py:448 in forward, code: hidden_states = self.final_layer_norm(hidden_states)
        layer_norm_371: "f32[1, 1, 512]" = torch.ops.aten.layer_norm.default(add_715, [512], p_model_model_decoder_layers_5_final_layer_norm_weight, p_model_model_decoder_layers_5_final_layer_norm_bias);  add_715 = p_model_model_decoder_layers_5_final_layer_norm_weight = p_model_model_decoder_layers_5_final_layer_norm_bias = None
        
         # File: /home/nlong/execu-tools/transformers/src/transformers/models/marian/modeling_marian.py:1592 in forward, code: lm_logits = self.lm_head(outputs[0]) + self.final_logits_bias
        linear_1027: "f32[1, 1, 59514]" = torch.ops.aten.linear.default(layer_norm_371, p_model_lm_head_weight);  layer_norm_371 = p_model_lm_head_weight = None
        add_716: "f32[1, 1, 59514]" = torch.ops.aten.add.Tensor(linear_1027, b_model_final_logits_bias);  linear_1027 = b_model_final_logits_bias = None
        
         # File: /home/nlong/execu-tools/transformers/src/transformers/generation/utils.py:800 in _update_model_kwargs_for_generation, code: model_kwargs["cache_position"] = model_kwargs["cache_position"][-1:] + num_new_tokens
        slice_2649: "i64[1]" = torch.ops.aten.slice.Tensor(add_682, 0, -1, 9223372036854775807);  add_682 = None
        add_717: "i64[1]" = torch.ops.aten.add.Tensor(slice_2649, 1);  slice_2649 = add_717 = None
        
         # File: /home/nlong/execu-tools/transformers/src/transformers/generation/utils.py:3269 in _sample, code: next_token_logits = outputs.logits[:, -1, :].clone().float()
        slice_2650: "f32[1, 1, 59514]" = torch.ops.aten.slice.Tensor(add_716, 0, 0, 9223372036854775807);  add_716 = None
        select_84: "f32[1, 59514]" = torch.ops.aten.select.int(slice_2650, 1, -1);  slice_2650 = None
        slice_2651: "f32[1, 59514]" = torch.ops.aten.slice.Tensor(select_84, 1, 0, 9223372036854775807);  select_84 = None
        clone_39: "f32[1, 59514]" = torch.ops.aten.clone.default(slice_2651);  slice_2651 = None
        to_373: "f32[1, 59514]" = torch.ops.aten.to.dtype(clone_39, torch.float32);  clone_39 = None
        
         # File: /home/nlong/execu-tools/transformers/src/transformers/generation/utils.py:3270 in _sample, code: next_token_logits = next_token_logits.to(input_ids.device)
        to_374: "f32[1, 59514]" = torch.ops.aten.to.dtype_layout(to_373, dtype = torch.float32, layout = torch.strided, device = device(type='cpu'));  to_373 = None
        
         # File: /home/nlong/execu-tools/transformers/src/transformers/generation/logits_process.py:1131 in __call__, code: bias = torch.zeros_like(scores)
        zeros_like_19: "f32[1, 59514]" = torch.ops.aten.zeros_like.default(to_374, pin_memory = False)
        
         # File: /home/nlong/execu-tools/transformers/src/transformers/generation/logits_process.py:1134 in __call__, code: bias += self.length_1_bias
        add__19: "f32[1, 59514]" = torch.ops.aten.add_.Tensor(zeros_like_19, to_32);  zeros_like_19 = to_32 = None
        
         # File: /home/nlong/execu-tools/transformers/src/transformers/generation/logits_process.py:1155 in __call__, code: scores_processed = scores + bias
        add_718: "f32[1, 59514]" = torch.ops.aten.add.Tensor(to_374, add__19);  to_374 = add__19 = None
        
         # File: /home/nlong/execu-tools/transformers/src/transformers/generation/logits_process.py:1619 in __call__, code: scores_processed = torch.full_like(scores, -math.inf)
        full_like: "f32[1, 59514]" = torch.ops.aten.full_like.default(add_718, -inf, pin_memory = False);  add_718 = None
        
         # File: /home/nlong/execu-tools/transformers/src/transformers/generation/logits_process.py:1620 in __call__, code: scores_processed[:, self.eos_token_id] = 0
        lift_fresh_copy_6: "f32[]" = torch.ops.aten.lift_fresh_copy.default(c_lifted_tensor_6);  c_lifted_tensor_6 = None
        slice_2652: "f32[1, 59514]" = torch.ops.aten.slice.Tensor(full_like, 0, 0, 9223372036854775807)
        index_put_: "f32[1, 59514]" = torch.ops.aten.index_put_.default(slice_2652, [None, detach__4], lift_fresh_copy_6);  slice_2652 = detach__4 = lift_fresh_copy_6 = index_put_ = None
        
         # File: /home/nlong/execu-tools/transformers/src/transformers/generation/logits_process.py:1779 in __call__, code: scores_processed = scores.log_softmax(dim=-1)
        log_softmax_19: "f32[1, 59514]" = torch.ops.aten.log_softmax.int(full_like, -1);  full_like = None
        
         # File: /home/nlong/execu-tools/transformers/src/transformers/generation/utils.py:3301 in _sample, code: next_tokens = torch.argmax(next_token_scores, dim=-1)
        argmax_19: "i64[1]" = torch.ops.aten.argmax.default(log_softmax_19, -1);  log_softmax_19 = None
        
         # File: /home/nlong/execu-tools/transformers/src/transformers/generation/utils.py:3305 in _sample, code: next_tokens = next_tokens * unfinished_sequences + pad_token_id * (1 - unfinished_sequences)
        mul_309: "i64[1]" = torch.ops.aten.mul.Tensor(argmax_19, and_19);  argmax_19 = None
        rsub_40: "i64[1]" = torch.ops.aten.rsub.Scalar(and_19, 1)
        mul_310: "i64[1]" = torch.ops.aten.mul.Tensor(detach__2, rsub_40);  detach__2 = rsub_40 = None
        add_719: "i64[1]" = torch.ops.aten.add.Tensor(mul_309, mul_310);  mul_309 = mul_310 = None
        
         # File: /home/nlong/execu-tools/transformers/src/transformers/generation/utils.py:3308 in _sample, code: input_ids = torch.cat([input_ids, next_tokens[:, None]], dim=-1)
        slice_2653: "i64[1]" = torch.ops.aten.slice.Tensor(add_719, 0, 0, 9223372036854775807);  add_719 = None
        unsqueeze_122: "i64[1, 1]" = torch.ops.aten.unsqueeze.default(slice_2653, 1);  slice_2653 = None
        cat_19: "i64[1, 21]" = torch.ops.aten.cat.default([cat_18, unsqueeze_122], -1);  cat_18 = unsqueeze_122 = None
        
         # File: /home/nlong/execu-tools/transformers/src/transformers/generation/stopping_criteria.py:494 in __call__, code: is_done = torch.full((input_ids.shape[0],), False, device=input_ids.device, dtype=torch.bool)
        full_58: "b8[1]" = torch.ops.aten.full.default([1], False, dtype = torch.bool, device = device(type='cpu'), pin_memory = False)
        
         # File: /home/nlong/execu-tools/transformers/src/transformers/generation/stopping_criteria.py:84 in __call__, code: return torch.full((input_ids.shape[0],), is_done, device=input_ids.device, dtype=torch.bool)
        full_59: "b8[1]" = torch.ops.aten.full.default([1], True, dtype = torch.bool, device = device(type='cpu'), pin_memory = False)
        
         # File: /home/nlong/execu-tools/transformers/src/transformers/generation/stopping_criteria.py:496 in __call__, code: is_done = is_done | criteria(input_ids, scores, **kwargs)
        or_39: "b8[1]" = torch.ops.aten.__or__.Tensor(full_58, full_59);  full_58 = full_59 = None
        
         # File: /home/nlong/execu-tools/transformers/src/transformers/generation/stopping_criteria.py:465 in __call__, code: self.eos_token_id = self.eos_token_id.to(input_ids.device)
        to_375: "i64[1]" = torch.ops.aten.to.dtype_layout(to_357, dtype = torch.int64, layout = torch.strided, device = device(type='cpu'));  to_357 = None
        
         # File: /home/nlong/execu-tools/transformers/src/transformers/generation/stopping_criteria.py:466 in __call__, code: is_done = isin_mps_friendly(input_ids[:, -1], self.eos_token_id)
        slice_2654: "i64[1, 21]" = torch.ops.aten.slice.Tensor(cat_19, 0, 0, 9223372036854775807)
        select_85: "i64[1]" = torch.ops.aten.select.int(slice_2654, 1, -1);  slice_2654 = None
        
         # File: /home/nlong/execu-tools/transformers/src/transformers/pytorch_utils.py:338 in isin_mps_friendly, code: return torch.isin(elements, test_elements)
        isin_21: "b8[1]" = torch.ops.aten.isin.Tensor_Tensor(select_85, to_375);  select_85 = to_375 = None
        
         # File: /home/nlong/execu-tools/transformers/src/transformers/generation/stopping_criteria.py:496 in __call__, code: is_done = is_done | criteria(input_ids, scores, **kwargs)
        or_40: "b8[1]" = torch.ops.aten.__or__.Tensor(or_39, isin_21);  or_39 = isin_21 = None
        
         # File: /home/nlong/execu-tools/transformers/src/transformers/generation/utils.py:3312 in _sample, code: unfinished_sequences = unfinished_sequences & ~stopping_criteria(input_ids, scores)
        bitwise_not_21: "b8[1]" = torch.ops.aten.bitwise_not.default(or_40);  or_40 = None
        and_20: "i64[1]" = torch.ops.aten.__and__.Tensor(and_19, bitwise_not_21);  and_19 = bitwise_not_21 = None
        
         # File: /home/nlong/execu-tools/transformers/src/transformers/generation/utils.py:3313 in _sample, code: this_peer_finished = unfinished_sequences.max() == 0
        max_20: "i64[]" = torch.ops.aten.max.default(and_20);  and_20 = None
        eq_19: "b8[]" = torch.ops.aten.eq.Scalar(max_20, 0);  max_20 = eq_19 = None
        return (cat_19,)
        